tools/pot/tests/data/models/multibranch_propogation_test_nets/test_ig_border_case_without_fq_moving.onnx (onnx, 15774 bytes, 6 tensors)

1 f4 [3, 3, 3, 3]
000000 e0 3f d5 bb ae e8 f3 3d 18 99 bc bc bf 30 1b be
       -0.0065078586 0.119096145 -0.02302222 -0.15155314
000010 22 d2 16 be 8a ce b6 3d d0 f9 6a bd f3 d5 26 3e
       -0.14728597 0.08926113 -0.057367146 0.16292553
000020 93 e4 aa bd 40 f7 19 bc f3 19 17 3e 13 2d 1e be
       -0.08344378 -0.009397328 0.14755993 -0.15446882
000030 ae a8 1d be 28 f8 90 bc 46 c1 bd 3d bd 0a 2b 3e
       -0.15396377 -0.017696455 0.092653796 0.16703315
000040 b3 f5 3d 3e 22 c6 af 3d 21 df 22 be 9e 8a b6 3d
       0.18550758 0.08582713 -0.1590543 0.08913158
000050 a5 0e e2 bd 0c cd 72 3d a1 67 0d 3e a0 2d 02 bd
       -0.110379495 0.05927758 0.13809063 -0.031781793
000060 c9 ce 1b be bd 0d ee bd 0c 0d 23 be 50 6c af bd
       -0.15215601 -0.11623714 -0.15922946 -0.08565581
000070 70 97 8c 3c 1a 85 a3 3d e8 75 6d bd 78 f1 35 bd
       0.017162055 0.079843715 -0.057973772 -0.044419736
000080 b3 ab 94 bd 74 f8 1e bd 19 df 37 be 63 7a 2c 3e
       -0.072593115 -0.038811162 -0.17956199 0.16843562
000090 18 ae 19 3d bf 06 00 3e d5 3a bc bd 49 de 00 3e
       0.037519544 0.12502573 -0.09190909 0.12584795
0000a0 23 a5 27 3e cd b0 17 be d2 60 3f be 7e cb 80 3d
       0.16371588 -0.14813538 -0.18689278 0.06288813
0000b0 ca 8b d4 3d 76 d1 3e be d6 91 89 bd df 7d e6 bd
       0.10378225 -0.1863459 -0.06717269 -0.11254477
0000c0 d5 da ac bd ba 9a cb bd bd 17 f2 bd 20 03 fe 3b
       -0.084401764 -0.09941621 -0.11820934 0.0077518374
0000d0 2c 3e 2b be f8 2c 14 3d 64 a6 00 be 6c ca 72 bd
       -0.16722935 0.036175698 -0.12563473 -0.059275076
0000e0 df 60 99 bd da 6f 99 3d e0 e7 15 be 40 61 b8 3b
       -0.0748918 0.07492037 -0.14639235 0.0056268275
0000f0 aa 16 e3 3d be 10 82 3d 60 67 f9 3b b4 93 df bd
       0.11088307 0.063508496 0.0076112 -0.10916844
000100 7d ac 03 be d8 62 ed bc 6e cf d9 bd b9 a2 3e be
       -0.12858768 -0.028977796 -0.10635267 -0.18616761
000110 c6 f2 24 be 58 c5 f3 bc 61 ba 3a be 87 fc 19 3e
       -0.16108236 -0.029757187 -0.1823516 0.15037738
000120 e9 f8 15 be cf b5 41 3e 26 98 ec 3d 3a f2 9d 3d
       -0.14645733 0.1891701 0.115524575 0.07712217
000130 80 3a b3 3a 74 07 41 bd ff ed ab bd a7 62 13 be
       0.001367405 -0.04712625 -0.083950035 -0.14393102
000140 47 73 e3 bd
       -0.11105972

2 f4 [3]
000000 88 3a 9c bd a4 d2 1c be 34 b2 11 3d
       -0.076283514 -0.15314728 0.03557034

3 f4 [6, 6, 3, 3]
000000 43 2c bc bd a0 b9 7f 3c 74 fb ba bc 90 5c 85 3c
       -0.0918813 0.015608221 -0.02282498 0.016279489
000010 76 fc df 3d f0 26 08 3e c0 d1 64 3b e0 f5 6f 3d
       0.10936825 0.13296103 0.003491506 0.058584094
000020 ec a1 ba bd 96 69 cb bd 58 f6 31 3d e8 ee 9e 3c
       -0.091129154 -0.09932248 0.043447822 0.019401029
000030 a0 bb cb 3c 98 0e 91 3d 84 40 b0 bd 76 e7 a5 3d
       0.02486974 0.07082862 -0.086060554 0.08100788
000040 48 dc 18 3d f7 4e e9 bd 4a 3e 06 bd e3 3a 05 be
       0.03731945 -0.113920145 -0.032774247 -0.13010745
000050 60 54 fd 3c 68 6d b7 3c a0 d8 0f 3d b6 96 77 bd
       0.030924022 0.022391036 0.0351187 -0.060446464
000060 1b ef 80 bd a0 44 b8 bd 84 ba e5 bc 7a b9 62 bd
       -0.06295606 -0.08997464 -0.02804304 -0.055352665
000070 6a f3 a9 bd f4 d5 f4 3d d6 50 e4 3d ba 44 b7 bd
       -0.08298381 0.11954871 0.11148231 -0.089486554
000080 fe da b3 bd ec d0 da 3d c8 53 a8 bd 44 9b 4a 3d
       -0.08782004 0.1068438 -0.08219105 0.04946448
000090 b4 fe af 3d dc c7 37 bd 30 53 42 3d e9 d8 e0 bd
       0.08593503 -0.044868335 0.047442615 -0.10978872
0000a0 b1 e3 e4 bd 00 c9 92 3a 07 dc 90 bd 7f 51 de bd
       -0.11176241 0.0011198819 -0.07073217 -0.10855388
0000b0 10 3a cf bd c2 1e dd 3d 5a 84 d6 bd c0 c6 20 bc
       -0.101184964 0.10796882 -0.10474463 -0.009813011
0000c0 1a c3 c0 3d 5c 78 39 3d f0 4b 6d 3c f6 07 03 bd
       0.09412213 0.0452808 0.014483437 -0.031990014
0000d0 a4 5a 1d 3d 0c c4 04 3e 88 1b ae 3d 8a 50 20 bd
       0.03841652 0.12965411 0.08501345 -0.039139308
0000e0 38 4c cd bc ba d6 8e 3d d2 cd 2f bd c0 9e 8b 3d
       -0.025060758 0.069745496 -0.042920895 0.068173885
0000f0 40 bf bb 3d b8 e4 8a bc 42 b7 87 3d 9c 8e af bd
       0.091673374 -0.016954765 0.066267505 -0.085721225
000100 dc ab ca bd c5 20 db bd 6c d1 02 be b2 e5 e6 3d
       -0.09896061 -0.1069961 -0.127752 0.1127428
000110 46 c1 fe bd 0c 2f 56 3d 80 68 06 3b e8 57 37 3d
       -0.12439208 0.05229096 0.0020509064 0.04476157
000120 2e ef 94 3d 30 60 f1 3c c5 47 d7 bd f8 8c b6 3d
       0.072721824 0.029464811 -0.10511736 0.089136064
000130 f4 88 a4 bd f0 39 33 3c c2 c6 bc 3d d8 6f 5b bc
       -0.08033934 0.010939106 0.092175975 -0.013393365
000140 ce e0 9f 3d ec bc f0 bc 6a 35 f8 bd 5c 1c f0 3d
       0.0780655 -0.02938696 -0.12119563 0.11724159
000150 90 3d a9 3d 8a 7d 2a bd 00 73 22 bd 42 8d b9 bd
       0.08263695 -0.04162363 -0.039660454 -0.09060146
000160 78 85 8a 3c 78 5c 9f 3c 44 0d 1d bd ac 5c 9f bd
       0.016909346 0.019453272 -0.03834273 -0.07781348
000170 28 44 c5 3d 62 70 a7 3d 36 a5 d6 bd 50 d7 c8 3c
       0.096321404 0.08175732 -0.1048073 0.024516732
000180 f0 da 17 3c 3e 47 aa 3d c8 15 38 3d be fb e2 3d
       0.009268507 0.083143696 0.044942647 0.11083172
000190 58 4d e9 3c a8 41 f8 3c 84 aa 99 bd 64 b3 97 3d
       0.028479263 0.030304745 -0.075032264 0.07407263
0001a0 0a 2e 89 3d 0e 48 45 bd f2 65 85 3d bc 40 5e bd
       0.066982344 -0.04816442 0.06513585 -0.054260954
0001b0 3a 9f 8f bd b9 23 a1 bd c8 ce 6c 3d e3 47 07 be
       -0.07012792 -0.07868142 0.05781439 -0.13211016
0001c0 88 fd 16 3d c5 85 0a be 1e 22 d3 3d 30 60 9c 3d
       0.03686288 -0.13527592 0.10309242 0.07635534
0001d0 dc 9f b2 3d 52 49 ba 3d 50 9e 85 3d 34 71 ab bc
       0.08721897 0.09096016 0.06524336 -0.020928003
0001e0 c0 6c e2 3d de 4f bd 3d 94 70 16 3d 86 22 95 3d
       0.11055899 0.09243749 0.036728457 0.072819754
0001f0 00 3b 79 bd 68 e0 31 bd 17 55 b5 bd 38 cd de bc
       -0.060847282 -0.0434269 -0.0885412 -0.027197465
000200 06 5e d0 3d 90 90 4d 3d b8 1d 77 3d e6 67 ea bd
       0.101741835 0.050186694 0.060331076 -0.11445598
000210 1c d6 0c 3d d8 61 37 bc ba a0 c6 3d 80 a3 56 bd
       0.034383878 -0.011192761 0.09698625 -0.05240202
000220 15 84 87 bd 64 c8 07 3d a0 31 d3 bd 60 8a 43 3c
       -0.066169895 0.03315009 -0.103121996 0.011934847
000230 98 11 24 3d f4 92 cf bc 00 52 a9 3d e8 3a 15 3d
       0.04005584 -0.025338627 0.082675934 0.03643313
000240 2c 69 e9 3d 30 2c db 3d 12 b0 8f 3d e8 86 7d bd
       0.11397013 0.107017875 0.070160046 -0.061896235
000250 ba 47 80 3d 3c 01 af bd 96 7c d9 3d 49 f1 82 bd
       0.06263681 -0.08545157 0.10619466 -0.06393678
000260 4a 8f ca bd 55 6a 9b bd 3c b5 c7 3d 58 22 2c 3d
       -0.098906115 -0.075886406 0.097513646 0.04202494
000270 40 d1 8f 3b 94 47 dc 3d 9d 33 ef bd f0 6d df bc
       0.004388958 0.1075584 -0.11679766 -0.027274102
000280 00 76 fd bc 13 03 c7 bd fa 30 ad bd aa 13 b2 3d
       -0.030940056 -0.09717383 -0.08456607 0.08695157
000290 a0 64 53 3d 62 3d 04 be 9a f3 08 3e c4 60 dd 3d
       0.051609635 -0.1291404 0.13374177 0.10809472
0002a0 60 4d dd 3d 68 86 d1 3c c0 4d 0a 3c c0 7c e0 3b
       0.10805774 0.025576785 0.008441389 0.006850809
0002b0 30 f5 b1 bd 89 0b 91 bd 7c cd fc bd 90 aa fc bc
       -0.08689344 -0.07082278 -0.123438805 -0.03084305
0002c0 d8 ea 04 3d 32 e0 4d bd 3c f1 82 3d e0 d5 a4 bc
       0.032450527 -0.050262637 0.06393668 -0.020121515
0002d0 3e e0 a1 3d c0 c6 64 3b 38 d0 58 bd b6 91 bd 3d
       0.07904099 0.0034908503 -0.052932948 0.09256308
0002e0 6f 8a e3 bd 64 ce 07 be 30 68 e8 bd f4 86 6d bd
       -0.111103885 -0.13262326 -0.11347997 -0.05799003
0002f0 7a 2c 11 bd 78 96 e8 bd c4 d1 72 3d 4f 65 0a be
       -0.035442807 -0.11356825 0.05928208 -0.13515209
000300 e2 82 fa bd 6c 77 1d 3d 22 20 57 bd 1a 08 c4 3d
       -0.12231995 0.038443968 -0.05252088 0.09571858
000310 b0 25 f1 3d 54 a7 f3 3d 0a 58 4f bd 7c 11 ed 3d
       0.117747664 0.1189715 -0.05062107 0.115756005
000320 00 87 1c bb f6 d2 2d bd 2c 4b 9b 3d e0 d9 ea bd
       -0.0023884177 -0.042437516 0.07582697 -0.114673376
000330 78 52 f4 bc cb 39 f0 bd 04 f0 e8 bc 0c 70 02 3e
       -0.02982448 -0.11729773 -0.02843476 0.12738055
000340 40 9d ec 3d d4 c3 91 3d 84 17 77 3d a6 0a 66 bd
       0.115534306 0.071174294 0.06032516 -0.0561625
000350 fc 92 87 bd d8 77 cd 3c ae 25 db 3d b8 c9 80 3d
       -0.06619832 0.02508156 0.10700546 0.06288475
000360 1c 1b b5 3d 00 12 b0 ba e6 a0 74 bd 40 ef 3a 3b
       0.08843061 -0.0013433099 -0.059723757 0.0028523952
000370 ad d9 8e bd c8 2d 28 bd 15 3a d8 bd 01 fa f8 bd
       -0.06975112 -0.041059285 -0.10557953 -0.121570595
000380 b0 db ec 3c 1e f2 ab bd fc 0f 5e 3d ce e2 b7 3d
       0.028913349 -0.083957896 0.054214463 0.089788064
000390 ce 9c 09 3e 7e 0a 7a bd 44 dc 86 3d c8 be 18 3d
       0.13438722 -0.061045162 0.06584981 0.03729132
0003a0 94 99 0e bd b0 0b b0 3d 88 af b7 bc 98 12 35 3d
       -0.034814432 0.08595979 -0.022422567 0.044207186
0003b0 fc 4b c6 bd 98 0d 98 3d b6 b7 60 bd 80 39 21 3d
       -0.096824616 0.07424468 -0.0548627 0.039361477
0003c0 31 55 bb bd 68 e4 de 3d 02 6e 3c bd 6c 4f a9 3d
       -0.09147108 0.10883409 -0.04600335 0.08267102
0003d0 9a d6 41 bd 20 ff 34 bd f0 24 00 be f0 a9 0a 3d
       -0.0473238 -0.04418862 -0.1251409 0.03385347
0003e0 bf 96 06 be 00 0d 77 3c 7c e9 e8 3d 72 4e a4 3d
       -0.13143443 0.015078783 0.113726586 0.08022775
0003f0 94 ee ee 3d ee 5c ef bd 7d f0 f5 bd f8 9b 6e bd
       0.11666599 -0.11687647 -0.1200876 -0.058254212

4 f4 [6]
000000 54 8f ad 3d 98 6d 77 3d 74 d6 86 bc 66 23 ba bd
       0.08474603 0.06040725 -0.016459681 -0.09088783
000010 9e e3 d8 3d 0e fd 8c bd
       0.105902895 -0.06884204

5 f4 [6, 12, 3, 3]
000000 ca cc 9e bd 69 c9 0b bd 9c b0 96 bd 11 83 32 bd
       -0.07753904 -0.034127627 -0.07357904 -0.043582026
000010 e2 35 78 bd 5a 27 5a 3d 3a 92 c1 bd f0 f9 91 3b
       -0.06059826 0.053260185 -0.09451719 0.0044548437
000020 30 87 c6 bb d7 d4 9f 3d 36 30 31 bd 4d bf 40 bd
       -0.006058596 0.07804268 -0.04325887 -0.04705744
000030 57 ca bd bd f4 c8 b0 bd 7a 61 7e 3d 04 3a af bd
       -0.09267109 -0.08632079 0.06210468 -0.085559875
000040 28 a6 4a bd 94 64 ab bd 2f 81 8c 3d fa 94 00 bd
       -0.049474865 -0.08368793 0.06860577 -0.031392075
000050 f0 13 ff bb 52 e9 05 3d 3c 09 9a bc 31 38 20 bd
       -0.007784359 0.032693215 -0.018803231 -0.03911609
000060 28 11 15 3c 0a 4f 51 3d b5 2d c0 bd 73 18 a9 3d
       0.009098329 0.05110077 -0.09383718 0.082566164
000070 40 d5 49 3c 1f 64 9a 3d f6 c5 74 3d 5e 44 10 3d
       0.012318909 0.07538628 0.059759103 0.03522145
000080 c2 d4 7a 3d 71 5b 13 bd 10 7c 9e bc 00 65 f5 bb
       0.061238058 -0.035975877 -0.019346267 -0.007488847
000090 da ef 2d bd f9 ea c4 bd 14 6a b2 3c dd 70 80 3d
       -0.04246507 -0.0961513 0.021779098 0.06271527
0000a0 5f dc b1 3d 80 d0 1b 3b c0 c6 8b 3a c8 4d b7 3c
       0.086846106 0.0023775399 0.001066409 0.022375956
0000b0 3d 90 90 3d b6 99 26 3d 28 b6 0a bd be e9 67 3d
       0.07058761 0.040673934 -0.033865124 0.0566194
0000c0 44 ca a9 bc 0a c7 9a bd 70 ec f2 3b 04 4f 1a bd
       -0.02072633 -0.07557495 0.0074134395 -0.03767301
0000d0 89 a1 b5 bd ec 04 c2 bd 7c c5 89 bd b8 f0 a0 3c
       -0.08868701 -0.09473595 -0.0672712 0.019646034
0000e0 e9 ea c2 bd 86 64 89 bd e0 5b f2 bb 60 5c 0f 3b
       -0.09517462 -0.067086264 -0.0073962063 0.0021875128
0000f0 22 9b 2a 3d 5a 72 28 bd 3a b9 35 bd 32 b0 69 bd
       0.041651852 -0.04112468 -0.0443661 -0.0570528
000100 04 73 bb bd 51 51 27 bd ea 44 05 bd 40 ad 05 bd
       -0.09152797 -0.040849034 -0.032536425 -0.032635927
000110 be 32 41 3d d4 22 c2 bd a7 a7 4c bd 40 5e cc ba
       0.047167532 -0.09479299 -0.049964573 -0.0015592054
000120 f6 33 10 3d fc 30 ed 3c 06 37 9f bd 8d 82 a5 bd
       0.035205804 0.028954022 -0.07774167 -0.08081541
000130 ea fa 03 3d 6e c1 13 bd b0 c8 33 3c f8 69 f4 bc
       0.032221712 -0.03607314 0.010973141 -0.029835686
000140 50 0e 69 bc 7c 63 9b bd 6c 61 05 bd 63 9f 99 bd
       -0.014224604 -0.075873345 -0.032563612 -0.07501104
000150 f7 db b4 3d 14 10 f5 3c 78 28 c6 3c 80 3f 30 bc
       0.088310175 0.029914893 0.024189219 -0.010757327
000160 90 df ba 3b d0 10 96 bc 18 c7 47 bd 62 6c 58 3d
       0.0057029203 -0.018318564 -0.048773855 0.052837737
000170 c4 46 6e bd f2 5a 6d 3d 5f 66 91 3d 5f 88 95 3d
       -0.058172956 0.05794806 0.07099604 0.07301401
000180 66 52 40 3d 3c 6d 50 bd 3f ea 8b bd d3 ad 85 bd
       0.04695358 -0.050885424 -0.06831788 -0.06527295
000190 4e dc 29 3d e0 63 0c 3b f9 23 ba bd 00 88 66 bd
       0.041469865 0.0021421835 -0.090888925 -0.056282043
0001a0 12 d7 5c 3d 14 73 35 bd ce 1a 62 bd 50 2b 12 3c
       0.053916045 -0.0442992 -0.055201344 0.008921459
0001b0 78 51 e3 3c 16 ae 70 bd 7b 09 c1 3d 94 07 51 bd
       0.027748808 -0.05875977 0.094256364 -0.051032618
0001c0 18 32 5f 3c 92 cc 5c 3d 3c 61 fa 3c 64 c9 d9 bc
       0.013622783 0.05390603 0.030563943 -0.026585288
0001d0 3a 1e 70 3d 72 92 09 3d 37 79 c4 3d 4a 7e 42 3d
       0.058622576 0.033586927 0.095934324 0.04748372
0001e0 00 aa ac 3a 08 85 6e bc 7b 92 95 3d 68 08 5d bc
       0.0013173223 -0.014558084 0.073033296 -0.013490774
0001f0 28 d7 6c bc 60 41 ff 3b a2 1e b5 bd fc ae ec 3c
       -0.014455594 0.0077897757 -0.08843733 0.028892033
000200 44 e7 82 3c 70 34 c1 3b 7d e0 be 3d b1 d4 2f bd
       0.015979417 0.0058961436 0.093201615 -0.042927448
000210 35 d7 ba 3d 0e a9 00 3d fe 71 2f 3d 99 63 a6 3d
       0.09123079 0.031411223 0.04283332 0.081244655
000220 0a 3b 25 3d ce ca 27 3d c3 89 99 3d ab 63 a6 3d
       0.040339507 0.040964894 0.07496979 0.08124479
000230 9c 30 5e bd ea 5e 16 bd 3a b7 11 bd 90 fb 69 bc
       -0.054245576 -0.03671161 -0.03557513 -0.014281169
000240 b1 7d c3 bd 80 d1 67 3c 00 b6 dc bc 4b 79 53 bd
       -0.09545458 0.01414907 -0.026942253 -0.051629346
000250 db dd 8b 3d d6 f9 19 3d a0 e4 eb 3b e7 95 87 3d
       0.06829425 0.037591778 0.007198885 0.066203885
000260 a3 6a 49 bd 80 fe b1 3a 52 14 81 bd b8 f8 8a bd
       -0.049173962 0.0013579875 -0.06302704 -0.067857206
000270 9f 6a b3 bd 8b 3d 83 3d 1c e1 a4 bd ff 1e a8 3d
       -0.08760571 0.06408223 -0.08050749 0.08209037
000280 d4 9b e8 3c 9f 08 a7 3d 55 9c 7c bd 5e 28 9f bd
       0.028394617 0.08155941 -0.061672527 -0.07771371
000290 14 d2 8e 3c 40 d7 38 3c 0e 90 91 bd 76 3b 68 3d
       0.017434157 0.011281788 -0.071075544 0.05669733
0002a0 44 cf a2 bd e0 79 0a 3c b5 b2 bf bd ca fb b8 bd
       -0.07949689 0.008451909 -0.093602575 -0.090324
0002b0 f0 3e 15 bd 17 9c c1 bd 16 24 83 bd 5d 25 b4 3d
       -0.036436975 -0.094536 -0.06403367 0.08796189
0002c0 32 60 17 bd fb 78 ba bd 6a 36 47 3d 2e 4a 8f bd
       -0.036956973 -0.091051064 0.048635878 -0.069965705
0002d0 00 42 e1 39 4e 58 60 3d 92 c5 35 3d 50 3c 4e bd
       0.00042964518 0.054771714 0.04437787 -0.050350487
0002e0 52 2b 48 3d b2 80 21 3d 2b 27 55 bd 07 18 b3 3d
       0.04886944 0.039429374 -0.052039307 0.08744817
0002f0 5a 1f 56 3d 7c 7f 0b bd 96 0b 85 bd fe ab b4 bd
       0.052275993 -0.034057125 -0.064963505 -0.088218674
000300 51 5d 1a bd 2b a6 3d bd 09 74 8e 3d 6a 91 8d bd
       -0.03768665 -0.04630105 0.06955726 -0.06912501
000310 f0 a6 8d bd a0 b9 2b bd 30 ba 69 3c aa aa 32 3d
       -0.069166064 -0.041925073 0.014265582 0.04361979
000320 40 1e 2c 3b da 21 1a bd 0b 06 6b bd 48 7e 66 bd
       0.0026263148 -0.03762994 -0.05737881 -0.056272775
000330 7e 82 79 3d e1 de bd bd e7 21 4b bd 26 e4 2e 3d
       0.060915463 -0.092710264 -0.04959288 0.042698048
000340 fa 1f 4e bd 76 34 46 3d ca b8 8d bd ea 69 7b 3d
       -0.050323464 0.048389874 -0.06920011 0.061380304
000350 bc 92 88 bd a1 47 a8 3d 08 ac 30 bc db fd 33 bd
       -0.06668612 0.08216787 -0.010783203 -0.043943267
000360 ee 17 52 3d a6 ee 4f 3d 29 06 33 bd 40 34 54 3c
       0.051292352 0.050764702 -0.043707047 0.0129519105
000370 b3 86 8d 3d ef 68 c2 bd 9e 1b 7f 3d 52 c4 20 3d
       0.069104575 -0.09492671 0.062282197 0.039249726
000380 0c 3f 12 bd 23 ee 67 bd e2 ce 09 bd 25 64 48 bd
       -0.035704657 -0.05662359 -0.033644564 -0.04892363
000390 10 18 e2 3b bf 2d 9b bd d3 b6 a1 bd d9 1a 8e bd
       0.006899841 -0.07577085 -0.07896199 -0.069387145
0003a0 16 ed 0e 3d 28 2e 51 3c 2e 37 6e 3d 7f e1 b3 3d
       0.03489407 0.012767352 0.058158092 0.08783244
0003b0 6c 1a df bc 2d 47 b4 3d 7f 3f 8f 3d 2a 60 22 3d
       -0.027234279 0.08802638 0.06994533 0.03964249
0003c0 23 9c 3d bd 96 12 53 bd da 4a 2f 3d 0f 7f aa 3d
       -0.04629148 -0.051531397 0.042795993 0.08325016
0003d0 a4 ed b0 bd 00 25 6d ba d9 56 aa 3d 16 e4 33 3d
       -0.08639076 -0.0009046346 0.08317346 0.04391869
0003e0 b8 b4 d0 3c 4a 2d 07 3d e9 68 1a bd 58 9c 14 bc
       0.025476798 0.033002175 -0.037697706 -0.009070478
0003f0 12 82 6a bd cf c5 b0 bd be d7 20 bd ca f9 96 bd
       -0.05725295 -0.08631479 -0.039268248 -0.07371862

6 f4 [6]
000000 73 61 64 bd 54 53 34 bd 10 6f f1 bb b0 7c ee 3b
       -0.055756997 -0.04402478 -0.007367976 0.0072780475
000010 2c c6 a4 3c 17 2b af bd
       0.020114027 -0.085531406
