tools/pot/tests/data/models/multibranch_propogation_test_nets/test_ig_border_case_with_fq_moving.onnx (onnx, 17227 bytes, 6 tensors)

1 f4 [3, 3, 3, 3]
0	0xbe1c7de4	-0.15282398
1	0x3e043673	0.12911396
2	0xbe2e2ef8	-0.17010105
3	0x3d0511a8	0.03248754
4	0x3e341ff7	0.17590319
5	0x3dcbc3ee	0.0994948
6	0x3dd1a722	0.10236956
7	0x3deb734e	0.11496602
8	0xbd0b3434	-0.03398533
9	0x3e2418ff	0.1602516
10	0x3e0df91f	0.13864563
11	0x3df13dde	0.11779378
12	0xbd5d3470	-0.054005086
13	0x3d23cad0	0.03998834
14	0x3df9132e	0.12161861
15	0xbdfb8e56	-0.12283008
16	0xbe16db1e	-0.14732024
17	0x3e11d475	0.14241202
18	0x3e2c9f6d	0.16857691
19	0x3e1e634d	0.15467568
20	0x3d8713c2	0.065955654
21	0x3a62c900	0.0008651167
22	0x3dcf714e	0.10129033
23	0x3e27b7bd	0.16378684
24	0x3e2f8e5d	0.17144151
25	0x3e060f2b	0.13091724
26	0x3c70f650	0.014707163
27	0x3df7e12a	0.121034935
28	0xbdc8b061	-0.097992666
29	0xbb94e1c0	-0.004543513
30	0x3de3784a	0.11106928
31	0x3aaf3500	0.0013367236
32	0xbe3f7c5f	-0.18699788
33	0xbc624e50	-0.0138126165
34	0x3d7fb484	0.062428012
35	0x3de59662	0.11210324
36	0xbd0301a0	-0.03198397
37	0xbc450710	-0.01202561
38	0xbdb268c6	-0.0871139
39	0xbda440ed	-0.08020196
40	0x3d0bf810	0.034172118
41	0x3e2073c5	0.15669163
42	0x3db389d6	0.087665245
43	0x3e299601	0.16561128
44	0xbe220e60	-0.15825796
45	0x3dace002	0.084411636
46	0x3e1008e9	0.14065899
47	0xbd42dd78	-0.04757449
48	0xbc9e4438	-0.019319639
49	0x3e34ede7	0.17668878
50	0xbe1fd36b	-0.15607993
51	0xbda8b90e	-0.082384214
52	0xbd894d76	-0.067042276
53	0x3d90d5d6	0.07072036
54	0x3e0cc5a5	0.1374727
55	0x3df060e2	0.11737229
56	0x3e0acdf5	0.13555129
57	0xbe1bba22	-0.15207723
58	0xbd8cc26a	-0.06873019
59	0xbe1d192b	-0.15341632
60	0x3e1fa4cd	0.1559021
61	0xbddbc296	-0.10730474
62	0xbd54f3b4	-0.051990226
63	0x3e1fcb75	0.15604956
64	0x3b82a6a0	0.0039871484
65	0x3d929f8e	0.07159339
66	0x3e23d91b	0.16000788
67	0xbc317890	-0.010831967
68	0x3d9da872	0.07698144
69	0x3e3397b7	0.17538343
70	0x3c782830	0.0151463
71	0xbe086e3f	-0.13323306
72	0x3d6a1668	0.057150275
73	0x3e098b1f	0.13431977
74	0x3d3eef0c	0.04661469
75	0x3d69cce0	0.05708015
76	0xbe03da96	-0.12876353
77	0xbe1f925f	-0.1558318
78	0x3e3a4fdf	0.18194531
79	0x3d5128d4	0.051064327
80	0xbdeeae32	-0.11654319

2 f4 [3]
0	0xbe3f482e	-0.18679878
1	0xbe300402	-0.17189029
2	0xbd99d28c	-0.07510862

3 f4 [6, 6, 3, 3]
0	0x3d6922b0	0.056917846
1	0xbdbd7200	-0.092502594
2	0xbd88c7fe	-0.066787705
3	0xbcaa5758	-0.020793602
4	0x3d0d25cc	0.034459874
5	0xbd8bd362	-0.068274274
6	0x3d7e928c	0.062151477
7	0xbd56e8a2	-0.05246795
8	0xbd73a97c	-0.059487805
9	0x3db89272	0.09012307
10	0x3cef72c8	0.029229537
11	0xbd77a17e	-0.060456745
12	0x3d7536b4	0.059866622
13	0xbdb931e4	-0.09042719
14	0xbd0b6058	-0.034027427
15	0xbdd75870	-0.10514915
16	0xbd63601c	-0.05551158
17	0x3da368f6	0.07979004
18	0xbba13e40	-0.004920751
19	0x3dee6dd8	0.11642045
20	0x3cc0d1b0	0.023537487
21	0x3def38d4	0.11680761
22	0x3d97ad56	0.07406108
23	0x3d83ed98	0.06441802
24	0xbdf01316	-0.1172239
25	0x3e04790c	0.129368
26	0x3c1a8ec0	0.009433448
27	0x3d9f4f54	0.077788025
28	0xbdfc1acd	-0.12309799
29	0x3c00fe50	0.007873133
30	0x3d8b7590	0.06809533
31	0x3cd84978	0.02640222
32	0x3d66dfe4	0.056365862
33	0x3e037818	0.12838781
34	0x3e02d306	0.12775812
35	0xbd0051aa	-0.03132788
36	0x3d8ba508	0.068185866
37	0x3cfa3988	0.030545011
38	0xbdc17946	-0.09446959
39	0xbd351f8c	-0.04421954
40	0xbd9d6772	-0.07685746
41	0x3bda0fc0	0.0066547096
42	0xbdc9e984	-0.09858993
43	0x3dff6c50	0.12471831
44	0x3d36ebac	0.044658348
45	0x3d5684d8	0.052372783
46	0xbdf942fd	-0.1217098
47	0xbdeae420	-0.11469293
48	0xbdb6c314	-0.08923927
49	0xbdcbdefa	-0.09954639
50	0x3bfdea60	0.007748887
51	0x3d7eb794	0.062186792
52	0x3df0bc74	0.117546946
53	0x3da6e79c	0.08149645
54	0x3cabba78	0.020962939
55	0x3ca7c120	0.020477831
56	0xbc85c450	-0.01632896
57	0xbc9e88a4	-0.019352265
58	0x3d049b0c	0.032374427
59	0x3df0ddac	0.117610306
60	0xbda72e70	-0.08163154
61	0xbcb1347c	-0.021631472
62	0x3dcc35fe	0.09971236
63	0xbd8394ce	-0.064248666
64	0x3c0c1590	0.008550063
65	0xbddd22d5	-0.10797659
66	0x3b27e040	0.002561584
67	0x3e048c0a	0.12944046
68	0x3e08bcac	0.13353223
69	0x3d672c08	0.056438476
70	0x3db9a37a	0.09064384
71	0xbd4278ea	-0.047478594
72	0x3da2e7ae	0.07954346
73	0x3c983e00	0.018584251
74	0x3cca9028	0.024726942
75	0x3de041c6	0.10950045
76	0x3def4fe4	0.1168516
77	0xbc79a880	-0.015237927
78	0x3d37a5b0	0.044835746
79	0xbca4ed40	-0.02013266
80	0x3df7449c	0.12073633
81	0x3da1d66a	0.07902224
82	0x3ca03058	0.019554302
83	0xbdd58f61	-0.10427738
84	0xbd765a0c	-0.06014447
85	0x3dec8334	0.115484625
86	0x3df31dc4	0.11870912
87	0xbc897758	-0.01678054
88	0xbde87815	-0.11351029
89	0x3d15620c	0.036470458
90	0x3c97a438	0.018510923
91	0xbde585ae	-0.11207138
92	0xbbb78080	-0.005600035
93	0x3dc7aca2	0.09749724
94	0xbd859051	-0.06521667
95	0x3d5446f8	0.051825494
96	0x3d9f4b72	0.07778062
97	0xbaaf4300	-0.0013371408
98	0x3d53f114	0.051743582
99	0x3d859684	0.06522849
100	0xbd12dae4	-0.03585328
101	0xbdb617aa	-0.08891232
102	0x3d3f7fb4	0.046752647
103	0xbda46bfe	-0.080284104
104	0x3c9346e0	0.017978132
105	0xbce8ea18	-0.028431937
106	0x3d5126e0	0.051062465
107	0xbd990fe0	-0.07473731
108	0x3e07196a	0.13193288
109	0x3db1de4e	0.086849794
110	0xbdf7c11c	-0.120973796
111	0x3da3b7e2	0.07994057
112	0x3d405b7c	0.046962246
113	0x3d8f5b40	0.069998264
114	0xbdcff3c2	-0.10153915
115	0x3c9f5e38	0.019454107
116	0xbcc0f8bc	-0.023556106
117	0x3d31d008	0.043411285
118	0xbd4cb910	-0.049981177
119	0xbd98c566	-0.07459526
120	0xbdaf1106	-0.08548169
121	0x3c281ed0	0.0102612525
122	0xbd38b2a4	-0.04509224
123	0x3d26212c	0.04055898
124	0x3daa636e	0.08319746
125	0x3cb2cc88	0.021826044
126	0x3d61de08	0.055143386
127	0xbd91eb90	-0.07125008
128	0x3c456dc0	0.012050092
129	0x3ccc9010	0.024971038
130	0x3c8235d8	0.015894815
131	0xbe01c6df	-0.1267352
132	0x3dbca93e	0.09211968
133	0xbdb59d09	-0.08867843
134	0x3deb5e40	0.11492586
135	0x3cffea68	0.031239703
136	0xbda98c89	-0.08278758
137	0xbdc4d784	-0.09611419
138	0x3de768fc	0.11299321
139	0x3d376ef0	0.044783533
140	0xbd3e5492	-0.04646737
141	0x3dc68da4	0.096949846
142	0x3d0cb704	0.034354225
143	0xbdc1b61e	-0.09458564
144	0x3c9ed720	0.019389689
145	0x3ca7dd48	0.020491257
146	0xbd6eba0a	-0.05828289
147	0x3da3c434	0.07996407
148	0x3c90a550	0.017656952
149	0x3d222f48	0.039595872
150	0x3d6ee940	0.058327913
151	0xbda51538	-0.08060688
152	0xbc1ceef0	-0.0095784515
153	0x3d8be9bc	0.06831691
154	0xbd088e7e	-0.033339016
155	0xbd993870	-0.07481468
156	0x3dbcb560	0.09214282
157	0xbd3e36a2	-0.04643882
158	0x3d021708	0.031760246
159	0x3d5b2458	0.053501457
160	0x3db96190	0.09051812
161	0x3df11374	0.117712885
162	0xbdec9d0f	-0.11553394
163	0xbdbf836a	-0.09351237
164	0xbde7a3b8	-0.11310524
165	0xbdf7b0be	-0.12094258
166	0xbcac0b0c	-0.021001361
167	0x3d91f1e6	0.071262166
168	0x3d5c5f3c	0.05380176
169	0xbde1f156	-0.11032359
170	0xbdf3bf2e	-0.11901699
171	0xbcc49728	-0.023997858
172	0xbda5dcf6	-0.080987856
173	0xbd5cef6a	-0.05393926
174	0xbe02cc5e	-0.12773272
175	0x3e07b9a2	0.13254407
176	0xbd55338c	-0.052051112
177	0x3d7f4864	0.062324896
178	0xbda535ea	-0.08066924
179	0xbd6a80e6	-0.057251833
180	0x3d984298	0.07434577
181	0xbddf2bd7	-0.10897034
182	0xbb8f44a0	-0.0043721944
183	0x3d69b860	0.0570606
184	0x3df13acc	0.11778793
185	0xbd6670c8	-0.0562599
186	0xbda7ba98	-0.08189887
187	0x3ca87248	0.020562306
188	0x3de1988a	0.11015423
189	0x3de2cef0	0.110746264
190	0xbce38220	-0.02777201
191	0xbab42680	-0.0013744384
192	0xbd4a7842	-0.049431093
193	0x3cf4bcc0	0.02987516
194	0x3d9be866	0.07612686
195	0x3d829954	0.06376901
196	0x3dc63d92	0.09679712
197	0xbc626640	-0.013818324
198	0x3dd748de	0.10511945
199	0x3d3377b0	0.043815315
200	0xbd2834b4	-0.041065887
201	0x3d26b4fc	0.040699944
202	0x3b88cec0	0.004175037
203	0xbdc6a3da	-0.09699221
204	0xbc6c7c80	-0.01443398
205	0x3d8540ce	0.06506501
206	0xbcb264cc	-0.02177658
207	0x3d54d540	0.051961184
208	0x3dc6313a	0.09677358
209	0x3dae06f2	0.084974185
210	0x3d20207c	0.03909348
211	0x3dea0d58	0.11428326
212	0xbda30ac3	-0.07961037
213	0xbe08e840	-0.13369846
214	0xbdd64bfc	-0.104637116
215	0xbe08d72b	-0.1336333
216	0x3da91262	0.08255459
217	0x3ca29148	0.019844666
218	0x3df75ec8	0.12078625
219	0x3df50fac	0.1196588
220	0xbc7d8d90	-0.015475646
221	0x3ca79170	0.020455092
222	0x3d7715b4	0.060323432
223	0x3d9abcbe	0.07555531
224	0x3c437400	0.011929512
225	0x3de34134	0.11096421
226	0x3de00de2	0.10940148
227	0x3df9d54c	0.12198886
228	0xbdb3b782	-0.08775236
229	0x3c93fec8	0.018065825
230	0x3d4a1db4	0.049344733
231	0x3d98dfa6	0.074645326
232	0xba782a00	-0.00094667077
233	0xbda8dc1c	-0.082451075
234	0x3d87e414	0.06635299
235	0xbd49b5d4	-0.04924567
236	0x3d170e3c	0.03687881
237	0xbd9cabcb	-0.076499544
238	0xbc4cc8b8	-0.012499027
239	0x3ddeb64e	0.108746156
240	0xbc1bf6e0	-0.009519309
241	0xbccd01e4	-0.025025316
242	0x3cd808f8	0.026371464
243	0xbd8ca1b1	-0.06866778
244	0x3cc57578	0.024103865
245	0xbdcec95c	-0.10097
246	0x3df0cf88	0.117583334
247	0xbb6156c0	-0.0034383982
248	0xba5b1200	-0.0008356869
249	0x3d5fa744	0.054602876
250	0xbd5565da	-0.052099086
251	0x3d8a978c	0.067671865
252	0x3c985a00	0.018597603
253	0x394ce000	0.00019538403
254	0xbd563202	-0.052293785
255	0xbdbc8df0	-0.0920676

4 f4 [6]
0	0x3df03f78	0.11730856
1	0xbdcb3814	-0.099228054
2	0x3db50950	0.08839667
3	0xbdd8e250	-0.10590041
4	0xbbf9c5a0	-0.0076224357
5	0x3ca89618	0.020579383

5 f4 [6, 12, 3, 3]
0	0xbd40745b	-0.046985965
1	0xbd1ef620	-0.03880894
2	0xbb0da660	-0.002161406
3	0xbdbeef3a	-0.093229726
4	0xbd0d1e68	-0.034452826
5	0x3db4751d	0.088114
6	0xbc9f45a0	-0.01944238
7	0xbd16318e	-0.036668353
8	0x3d2f283a	0.042762972
9	0x3cc9d960	0.024639785
10	0xbd4328a8	-0.047646195
11	0x3d87fcaf	0.066399924
12	0xbda3303c	-0.07968184
13	0x3cb3d638	0.021952733
14	0x3d83e69b	0.06440469
15	0x3c998f60	0.018745124
16	0xbd04d4ca	-0.032429494
17	0xbd84c9c6	-0.06483798
18	0xbd8a5d01	-0.0675602
19	0x3d015fc6	0.031585477
20	0x3dc4a7dd	0.0960233
21	0x3cace818	0.021106765
22	0xbd161c3e	-0.036648028
23	0xbc2989b0	-0.010347769
24	0xbd8f383d	-0.069931485
25	0x3dbda3f3	0.092597865
26	0xbc9a9c9c	-0.018873505
27	0x3d829385	0.06375793
28	0x3d8e7a43	0.06956913
29	0x3c19e248	0.009392329
30	0xbced6934	-0.028980829
31	0x3d3c1c3a	0.045925356
32	0x3b6aaa40	0.0035807043
33	0x3d4d6996	0.050149523
34	0x3da4c933	0.08046188
35	0x3d884555	0.06653849
36	0x3d0293da	0.031879283
37	0x3c070738	0.008241467
38	0xbcbfd28c	-0.023415826
39	0xbd7d2250	-0.0618003
40	0xbd8ea168	-0.069643795
41	0xbdc0e78b	-0.09419163
42	0x3daf96bf	0.085736744
43	0xbb3dc9a0	-0.002895929
44	0xbd821fc5	-0.06353716
45	0xbd03b9f8	-0.032159775
46	0x3d5f1f62	0.05447329
47	0xbcc94460	-0.024568737
48	0x3d1fa58a	0.03897623
49	0xbb59ba80	-0.0033222735
50	0xbd792712	-0.060828276
51	0xbd862a9a	-0.06551094
52	0xbb819140	-0.0039540827
53	0x3d6194a2	0.055073388
54	0xbdb9e953	-0.09077706
55	0xbcc1802c	-0.023620687
56	0x3d3a1f66	0.0454401
57	0x3d41927a	0.04725883
58	0xbd8e031f	-0.06934189
59	0xbc9eef50	-0.019401222
60	0x3c0e48e0	0.008684367
61	0xbdae10c6	-0.08499293
62	0xbceca2a4	-0.028886147
63	0x3d10d6e6	0.035361193
64	0x3dbfa591	0.09357751
65	0x3d81db35	0.063406385
66	0xbadff040	-0.001708515
67	0x3d13096a	0.03589765
68	0xbc8bcd5c	-0.017065696
69	0x3be0dc80	0.006862223
70	0xbc9e3acc	-0.019315146
71	0x3dc404f3	0.095712565
72	0xbcf3cbf8	-0.029760346
73	0xbd3f7173	-0.046739053
74	0x3d21cf66	0.03950443
75	0x3d558b92	0.052135058
76	0x3db3bb8b	0.08776005
77	0x3db6ee7b	0.08932205
78	0xbce5e728	-0.028064325
79	0x3c55a1d8	0.013039075
80	0xbca3460c	-0.019930862
81	0x3cc06e5c	0.023490123
82	0x3d9cc4ad	0.076547004
83	0x3cd0bc9c	0.025480561
84	0x3b05eba0	0.0020434633
85	0xbba7d2a0	-0.005121544
86	0x3ce346f4	0.027743794
87	0xbd912a0f	-0.070881
88	0x3ca0ab08	0.019612804
89	0xbb8e8f00	-0.004350543
90	0x3da66767	0.08125191
91	0xbda13df1	-0.078731425
92	0x3daef8b3	0.08543529
93	0xbdc3bff2	-0.09558095
94	0xbb9ab500	-0.004721284
95	0x3d956a67	0.07295685
96	0x3d07bb66	0.0331377
97	0xbd27059c	-0.040776834
98	0x3dae6e3f	0.085171215
99	0xbc279098	-0.010227345
100	0x3d8d17ad	0.068892814
101	0xbd4250f5	-0.047440488
102	0x3bd69590	0.006548591
103	0x3a8f5600	0.0010935664
104	0x3dbd4305	0.092412986
105	0x3cd9998c	0.026562475
106	0xbd981c86	-0.074273154
107	0x3cc9a280	0.024613619
108	0xbcb472f8	-0.022027478
109	0x3d5cca72	0.053904004
110	0xbca91c9c	-0.020643525
111	0x3d699f7a	0.057036854
112	0xbc78d538	-0.015187554
113	0xbd8a65ce	-0.06757699
114	0xbc83da3c	-0.016095273
115	0x3dbd0207	0.09228902
116	0xbd46375d	-0.048392642
117	0x3c952ab0	0.018208832
118	0x3cb978b4	0.022640564
119	0xbd811a32	-0.063038245
120	0x3cc02e34	0.023459531
121	0x3da74963	0.08168294
122	0xbd02b4f2	-0.031910844
123	0x3d4cc486	0.049992107
124	0x3bd50690	0.0065010265
125	0x3daed74b	0.085371576
126	0xbd111d38	-0.035428256
127	0xbd4966a1	-0.04917014
128	0x3d2c4d72	0.042066045
129	0x3d3f0a0a	0.046640433
130	0xbd8bf776	-0.06834309
131	0x3d477ab2	0.048700996
132	0x3d6d2d3e	0.057904474
133	0x3d30a026	0.04312148
134	0x3db11893	0.08647265
135	0xbd2829e8	-0.04105559
136	0xbd92e22a	-0.071720436
137	0x3dc167db	0.09443637
138	0xbda1e46c	-0.07904896
139	0x3d1b5eb2	0.037932105
140	0x3d92840d	0.07154093
141	0xbda28a66	-0.07936554
142	0x3cec5afc	0.028851978
143	0xbdb1a6ca	-0.086743906
144	0x3d7c4036	0.061584674
145	0xbda45c5e	-0.0802543
146	0xbd960709	-0.073255606
147	0xbd350b34	-0.044200137
148	0xbd76f300	-0.060290337
149	0x3d99d35d	0.075110175
150	0x3dbf6779	0.09345908
151	0xbd9cd5a4	-0.07657936
152	0x3db21ac7	0.086965136
153	0x3dbff9a5	0.09373788
154	0x3d5420e6	0.051789187
155	0x3bcb4020	0.0062027127
156	0x3d9fccd3	0.07802739
157	0xbdaa2bb0	-0.08309114
158	0xbd93646f	-0.071968906
159	0x3cd84eec	0.02640482
160	0x3bfda1e0	0.0077402443
161	0xbdbb124c	-0.09134349
162	0x3c636050	0.013877943
163	0x3d8badef	0.068202846
164	0xbb560400	-0.0032656193
165	0x3d71f74e	0.05907374
166	0xbd04d804	-0.03243257
167	0x3c42fcd8	0.011901103
168	0xbd8a8f48	-0.0676561
169	0x3cdb8954	0.026798882
170	0x3c2fd058	0.010730825
171	0x3caaf158	0.020867035
172	0xbd5af7f3	-0.05345912
173	0x3daffef1	0.08593548
174	0x3cc517ec	0.024059258
175	0xbd6c9b21	-0.05776513
176	0x3d1c9f5e	0.038237922
177	0x3db314a5	0.08744172
178	0x3c6f02a0	0.014588028
179	0xbcefb08c	-0.029258989
180	0x3cf2238c	0.029557966
181	0xbd8cf530	-0.06882703
182	0x3bd78a40	0.00657776
183	0xbcfd12c4	-0.030892737
184	0x3cae551c	0.021280818
185	0xbd7421bf	-0.059602495
186	0x3d0c14da	0.034199573
187	0x3d8c18e3	0.06840684
188	0x3d2f1cfa	0.042752244
189	0xbcf2e8dc	-0.029652052
190	0xbc2818a8	-0.010259785
191	0xbd5a54e8	-0.05330363
192	0xbca7c028	-0.02047737
193	0xbcc98524	-0.02459962
194	0xbd869f8e	-0.065734014
195	0xbcebc79c	-0.028781705
196	0x3da80c2f	0.08205449
197	0x3d56b83a	0.052421786
198	0xbcf9f89c	-0.030514054
199	0xbd723827	-0.059135582
200	0x3d80e169	0.062929936
201	0x3c3a5e20	0.01137498
202	0xbdc14bb9	-0.09438271
203	0xbcc064fc	-0.023485653
204	0x3c8b1e00	0.016982079
205	0x3dbde8a7	0.092728905
206	0xbce45420	-0.027872145
207	0xbce0f0fc	-0.02745866
208	0x3da72617	0.08161562
209	0xbbf218f0	-0.0073882267
210	0x3ab645c0	0.0013906285
211	0x3d1f6572	0.038915105
212	0xbdae6e3d	-0.0851712
213	0x3c92816c	0.017883979
214	0xbb725320	-0.0036975816
215	0xbd6b94f7	-0.05751511
216	0xbd9825a5	-0.07429055
217	0x3dc447c5	0.095840015
218	0xbdbcd1b7	-0.092196874
219	0x3d543e1e	0.051817052
220	0xbc5db6b8	-0.013532333
221	0xbdb13b08	-0.086538374
222	0xbcad0d8c	-0.021124624
223	0xbce87e44	-0.02838052
224	0xbdb8d66b	-0.09025272
225	0x3da90d5f	0.082545035
226	0xbdb81910	-0.08989155
227	0xbdbcff23	-0.09228351
228	0xbceb5944	-0.028729089
229	0x3ca811a8	0.020516232
230	0xbd23bfc8	-0.03997782
231	0xbdb9d94a	-0.09074648
232	0x3da90a09	0.08253867
233	0x3d04a9ce	0.0323885
234	0x3d3b722e	0.045763187
235	0x3d863eb1	0.06554926
236	0xbc7515e8	-0.014958836
237	0x3ca6fe80	0.020385027
238	0x3d89900b	0.06716927
239	0xbb498080	-0.0030746758
240	0xbdba7ce8	-0.09105855
241	0x3c0c1850	0.008550718
242	0xbd98b1dc	-0.07455799
243	0xbdc0b3cf	-0.09409296
244	0x3d88f1e7	0.06686764
245	0xbd888403	-0.06665804
246	0xbdafb4b3	-0.085793875
247	0x3d645bea	0.05575172
248	0x3d24d266	0.040239714
249	0xbc305bb0	-0.0107640475
250	0x3d0ace22	0.03388799
251	0xbd09b92c	-0.03362386
252	0x3dbf6d05	0.09346966
253	0xbd84220d	-0.06451807
254	0x3cc9899c	0.02460175
255	0xbcbfc7e0	-0.023410738

6 f4 [6]
0	0xbda90a46	-0.08253913
1	0xbd54c598	-0.051946253
2	0x3d21092e	0.039315395
3	0xbd34e4fd	-0.044163693
4	0x3d7b5836	0.06136342
5	0xbd719019	-0.058975313
