tools/pot/tests/data/models/outlier_channel_splitting_example/outlier_channel_splitting_example.onnx (onnx, 92323 bytes, 5 tensors)

conv1.bias f4 [32]
0.91872764 0.42873752 0.09024024 -0.47974396 -0.73818326 0.5987568 -0.84802926 0.95713556
0.36793315 0.89200675 -0.82438123 0.68097854 -0.17048669 0.7399 -0.8533881 0.46117616
0.33064115 0.365546 -0.8629093 0.8137015 0.6897137 -0.18072319 0.384894 -0.9904717
0.5870812 -0.18245673 0.98676753 0.09435582 -0.5968065 -0.16173112 0.9118782 -0.09850645
00000000: bc31 6b3f 7c83 db3e e0cf b83d 00a1 f5be
00000010: 94f9 3cbf 2048 193f 7218 59bf d606 753f
00000020: bc61 bc3e 8e5a 643f a60a 53bf 9c54 2e3f
00000030: 1094 2ebe 166a 3d3f a477 5abf 481f ec3e
00000040: cc49 a93e d828 bb3e a0e7 5cbf be4e 503f
00000050: 1491 303f 800f 39be d410 c53e 8e8f 7dbf
00000060: f44a 163f f0d5 3abe cc9c 7c3f a03d c13d
00000070: 50c8 18bf d89c 25be da70 693f c0bd c9bd

conv1.weight f4 [32, 3, 3, 3]
-0.38426065 0.20840311 0.88600206 -0.52663934 0.33284497 -0.50577533 -0.3453133 0.82397807
-0.07276416 -0.8683921 0.244151 0.41495895 0.54655886 0.06566 -0.7775558 0.43263495
0.40632188 0.5147468 -0.042084575 0.8638083 -0.8994194 -0.67539585 0.8424312 0.796988
0.19900274 0.8696387 0.4566995 0.5608207 0.9193374 -0.44884956 0.26768386 -0.39541912
-0.32034373 -0.39984143 0.50471866 0.28372455 0.92155504 0.22174 -0.21535194 -0.095728636
-0.6912435 -0.28178954 0.090275645 -0.57308507 -0.85495114 0.9397882 0.23088026 0.6191195
0.86068153 0.7246287 0.4948138 0.23817718 0.7617707 -0.5248997 -0.3563068 0.22357893
-0.46956873 0.82401395 0.13356626 0.24321961 -0.50285983 -0.5608319 -0.901296 0.29333925
0.058038235 0.78561676 0.39547718 -0.23077416 -0.8065052 -0.644722 0.4338311 0.53000987
-0.17858875 -0.44795406 -0.061327815 0.9275346 0.6911578 0.751529 0.019419193 -0.96979296
-0.019008875 0.75267076 -0.33422267 0.5877681 -0.10206115 -0.883662 -0.5061133 0.8445848
-0.00481534 -0.43342328 0.049713016 -0.029013991 -0.20535815 -0.73336613 0.65967584 0.662066
0.18272841 -0.97920954 0.30495536 0.96012545 -0.44981074 -0.7659749 -0.58322287 -0.87189126
-0.18042803 -0.6784347 0.7644211 -0.09045541 0.7081368 -0.95390916 0.31650853 -0.94820786
-0.8692007 0.084908366 0.79678166 0.85929525 -0.3519528 0.17290342 0.73709905 0.24281764
0.60333395 -0.034819007 0.50584555 0.39702225 -0.37395954 0.088947654 0.8450011 0.92595077
-0.02626741 0.22053933 0.069144845 0.79442716 -0.96535885 0.07398403 0.7850926 0.85215485
-0.117319226 0.4007703 -0.3881451 0.76533353 0.09107244 -0.63577783 0.46917737 -0.64981353
-0.86182344 0.6256722 0.95855474 -0.47492838 0.23919249 -0.4133178 -0.08679414 -0.34305108
-0.34005272 -0.52672243 0.67941344 0.15305555 0.9502964 -0.70837915 -0.6448033 -0.383067
0.30986 -0.012974143 -0.7207124 0.8730284 0.9351212 0.15523732 0.7989907 -0.6422107
0.83846354 0.84800816 -0.45516014 0.032393456 -0.16158569 -0.0364058 -0.041909814 0.30171227
-0.7236395 -0.39613795 0.34863448 -0.84639 0.25572395 0.07993913 0.81777954 -0.47035325
-0.20744646 0.7227355 -0.8560946 -0.12386453 -0.7505063 -0.060238957 -0.5882782 0.30543053
0.6869104 0.79415965 -0.857762 -0.7079762 -0.79784083 -0.5029981 -0.5182457 -0.14093876
-0.33904052 0.5924314 0.12246895 0.12391055 -0.9332074 -0.7334596 0.5088067 0.554729
0.9821274 0.5011438 -0.020954847 -0.848894 -0.46004808 0.9397415 -0.9386219 -0.2932644
0.22661173 -0.68806255 0.95904994 0.6463115 -0.30988634 0.77641034 -0.6485208 0.09411621
-0.9254309 -0.5133413 -0.2680714 -0.32133615 -0.6607641 0.311455 0.22893608 0.30065942
0.745801 0.76545167 -0.54413605 -0.7428951 0.19320679 0.1004107 0.6210816 0.05567205
-0.3649975 0.02826333 0.2633325 0.84141886 0.6166496 0.21210492 0.84771633 -0.63885736
0.17100406 -0.71067286 0.7333411 0.9143784 -0.96399486 0.30251765 0.34779894 -0.3853321
00000000: d0bd c4be a067 553e 08d1 623f d6d1 06bf
00000010: a86a aa3e 7e7a 01bf e8cc b0be 3af0 523f
00000020: 6005 95bd f24e 5ebf b802 7a3e 8075 d43e
00000030: 48eb 0b3f c078 863d e60d 47bf 5482 dd3e
00000040: 6c09 d03e 72c6 033f e060 2cbd 8a22 5d3f
00000050: 5a40 66bf bee6 2cbf 92a9 573f 6807 4c3f
00000060: 60c7 4b3e a4a0 5e3f 84d4 e93e f291 0f3f
00000070: b259 6b3f 9ccf e5be dc0d 893e 6074 cabe
00000080: 1804 a4be 04b8 ccbe 3e35 013f 5844 913e
00000090: 08eb 6b3f d00f 633e 3885 5cbe 600d c4bd
000000a0: 56f5 30bf b846 90be 70e2 b83d b4b5 12bf
000000b0: 14de 5abf f695 703f e06b 6c3e 9e7e 1e3f
000000c0: a055 5c3f 4481 393f 3c58 fd3e b8e4 733e
000000d0: 6803 433f d45f 06bf d86d b6be e0f1 643e
000000e0: 506b f0be 94f2 523f 98c5 083e 900e 793e
000000f0: 6cbb 00bf ae92 0fbf 56bb 66bf 9030 963e
00000100: 80b9 6d3d 2e1e 493f fc7b ca3e 1050 6cbe
00000110: 2077 4ebf 800c 25bf 1c1f de3e baae 073f
00000120: f8df 36be 3c5a e5be e032 7bbd e872 6d3f
00000130: b8ef 303f 3464 403f 0015 9f3c 5a44 78bf
00000140: 80b8 9bbc 08af 403f 3c1f abbe f877 163f
00000150: 7005 d1bd ac37 62bf a490 01bf b636 583f
00000160: 00ca 9dbb a8e9 ddbe e09f 4b3d c0ae edbc
00000170: 6849 52be e2bd 3bbf 84e0 283f 287d 293f
00000180: 281d 3b3e 7aad 7abf 1c23 9c3e c8ca 753f
00000190: 984d e6be ee16 44bf 184e 15bf 4434 5fbf
000001a0: 20c2 38be e6ad 2dbf 1ab1 433f b040 b9bd
000001b0: 7448 353f 6433 74bf 680d a23e c0bd 72bf
000001c0: f083 5ebf 70e4 ad3d e2f9 4b3f c6fa 5b3f
000001d0: 2833 b4be 980d 313e 86b2 3c3f 30a5 783e
000001e0: 1874 1a3f 609e 0ebd 187f 013f 8046 cb3e
000001f0: a077 bfbe 302a b63d fe51 583f 1c0b 6d3f
00000200: c02e d7bc 10d5 613e d09b 8d3d 945f 4b3f
00000210: c221 77bf f084 973d d4fb 483f d226 5a3f
00000220: 1045 f0bd c431 cd3e f4ba c6be e6ec 433f
00000230: 3084 ba3d 56c2 22bf 0438 f03e 2e5a 26bf
00000240: 76a0 5cbf 0e2c 203f d863 753f d029 f3be
00000250: e0ee 743e 649e d3be 20c1 b1bd 64a4 afbe
00000260: 641b aebe 48d7 06bf 0aee 2d3f 98ba 1c3e
00000270: a046 733f 5658 35bf d411 25bf 5c21 c4be
00000280: f8a5 9e3e 8091 54bc 9c80 38bf ca7e 5f3f
00000290: 1a64 6f3f 88f6 1e3e a88a 4c3f ec67 24bf
000002a0: 8ca5 563f 1017 593f c00a e9be 00af 043d
000002b0: b876 25be 401e 15bd a0a9 2bbd 087a 9a3e
000002c0: 7040 39bf 98d2 cabe 3880 b23e 04ad 58bf
000002d0: 40ee 823e 20b7 a33d 005a 513f 24d2 f0be
000002e0: d86c 54be 3205 393f 0429 5bbf b0ac fdbd
000002f0: 2e21 40bf 20bd 76bd 6699 16bf 6461 9c3e
00000300: 5cd9 2f3f 0c4e 4b3f 4a96 5bbf ee3d 35bf
00000310: 4c3f 4cbf 7cc4 00bf c0ab 04bf 4052 10be
00000320: b896 adbe 96a9 173f 00d1 fa3d d0c4 fd3d
00000330: aee6 6ebf 02c4 3bbf 2841 023f b802 0e3f
00000340: b46c 7b3f f64a 003f 80a9 abbc 1e51 59bf
00000350: 6c8b ebbe e692 703f 8649 70bf c026 96be
00000360: e80c 683e de24 30bf 4c84 753f ac74 253f
00000370: 6ca9 9ebe d4c2 463f 7605 26bf 00c0 c03d
00000380: 0ae9 6cbf 566a 03bf a840 89be 2c86 a4be
00000390: d627 29bf 0877 9f3e 386e 6a3e 08f0 993e
000003a0: d0ec 3e3f a4f4 433f 804c 0bbf 602e 3ebf
000003b0: 00d8 453e 20a4 cd3d 34ff 1e3f 6008 643d
000003c0: f4e0 babe 8088 e73c 84d3 863e 3a67 573f
000003d0: c0dc 1d3f 0832 593e f003 593f 288c 23bf
000003e0: b01b 2f3e a8ee 35bf 3ebc 3b3f b414 6a3f
000003f0: 5ec8 76bf 98e3 9a3e b412 b23e 404a c5be

conv2.bias f4 [512]
0.2849443 -0.9209846 0.69678414 -0.9445907 -0.48770177 0.8129685 0.7530267 0.66975534
0.79794884 0.44163322 -0.46546245 0.8609787 -0.52032626 -0.98651814 -0.57795894 -0.09535074
0.6561166 -0.7308953 -0.82613444 0.38613307 0.42483282 0.29923487 -0.92733586 0.3738308
-0.47892857 -0.6898618 0.24527967 0.87737787 0.2005285 -0.774582 -0.5553577 0.3786744
-0.88661563 0.015037298 0.036793232 -0.2641679 0.123995185 -0.29447782 -0.7934723 0.101085424
0.10663676 -0.5766388 -0.9954978 0.3693254 0.5593815 -0.5584489 0.72509205 0.6224642
-0.7616333 0.57539225 -0.8112942 0.46210706 -0.39793015 -0.7166413 -0.6140617 0.680624
-0.6454594 -0.10542071 0.35641074 0.02292955 -0.9616034 0.7574923 -0.51562345 0.017189026
-0.5965822 0.6819793 0.6511625 -0.8256264 -0.68637943 0.86868596 -0.29698038 -0.76369715
0.91402125 -0.15954232 -0.7085781 0.26121044 -0.9357312 -0.13849115 -0.52279854 0.5550337
0.7964505 -0.64177203 0.027251005 0.50615776 0.06782937 -0.15968776 -0.05547297 0.07477629
0.46267307 0.8053136 -0.53742385 0.48379815 0.06375325 -0.14736688 -0.34919107 -0.22277904
0.85957706 0.8641906 -0.5565858 -0.7469163 0.84910667 -0.34189582 -0.5410981 -0.59386015
-0.25459623 -0.1278907 -0.32133627 0.24306333 0.9272888 -0.34230494 0.31895947 -0.59225154
-0.60990953 -0.08390701 -0.36969173 -0.4518181 -0.8278054 -0.47243357 -0.03844261 0.6841589
0.6799686 -0.82275987 -0.1433531 0.99424446 -0.4859059 0.8287674 0.60504794 0.38626504
-0.9410796 0.7282418 0.8657484 -0.6734395 -0.663569 -0.04786873 -0.7536607 0.5933945
-0.36077 -0.8694025 -0.03158343 -0.7956555 0.83114207 0.26126552 -0.9166796 0.45369267
0.14717937 -0.30357897 -0.951977 -0.9459398 0.94274414 0.08125734 0.16498256 -0.9349338
0.2417345 0.68021524 0.70908296 -0.66075957 -0.46895492 -0.41072917 -0.55778456 0.48326075
-0.9018992 -0.34085763 -0.6553831 0.8647014 -0.5455899 0.491629 -0.68856895 -0.6640289
-0.40205753 -0.8041229 0.6766218 -0.09413588 -0.8608017 -0.35352814 0.93160737 0.60805774
-0.5420506 0.5182545 0.0838263 -0.9483129 -0.20909631 -0.6229274 -0.29147506 0.55682874
-0.5164614 -0.17443073 0.6271069 0.84131885 -0.59263444 0.5342032 0.9188788 -0.23822045
-0.2543887 0.31850934 0.7137284 -0.445781 0.4699744 -0.8859105 0.56590044 0.23613858
0.019385695 0.058759212 0.36274827 -0.18848085 -0.50702596 0.8709376 0.36457765 -0.8111656
0.86360943 0.60935843 -0.076209664 -0.9625671 -0.98281944 -0.36943293 0.81542385 0.024558902
0.8071054 0.26973975 0.21947801 -0.44554424 0.84994376 -0.5485933 0.40050113 -0.3292153
-0.4669479 -0.5919944 0.14210308 -0.9482733 0.2119813 -0.5609485 0.7855425 -0.14656341
-0.12130368 0.30328047 0.32373965 0.834087 0.40042984 0.027896047 0.059029102 0.078810334
-0.62342346 0.65306866 -0.14505911 -0.67756486 0.8202027 0.48242342 -0.68761456 -0.34127784
0.8786197 0.6936127 -0.23565876 -0.26278436 0.88571525 -0.6781659 0.95049846 -0.41964936
00000000: 38e4 913e a6c5 6bbf 7260 323f b2d0 71bf
00000010: 0cb4 f9be b41e 503f 5cc6 403f 1675 2b3f
00000020: 6046 4c3f c01d e23e 1851 eebe 1a69 5c3f
00000030: 1a34 05bf 748c 7cbf 1ef5 13bf 4047 c3bd
00000040: 42f7 273f f41b 3bbf 8c7d 53bf 3cb3 c53e
00000050: b083 d93e 5035 993e e265 6dbf c066 bf3e
00000060: 2036 f5be c89a 30bf 982a 7b3e d69b 603f
00000070: 5857 4d3e 024b 46bf ec2b 0ebf 9ce1 c13e
00000080: 3ef9 62bf 005f 763c 80b4 163d 0441 87be
00000090: 30f1 fd3d ccc5 96be 0021 4bbf e005 cf3d
000000a0: 6064 da3d 9a9e 13bf f2d8 7ebf 3818 bd3e
000000b0: a033 0f3f 82f6 0ebf a29f 393f d059 1f3f
000000c0: 66fa 42bf e84c 133f fab0 4fbf 4c99 ec3e
000000d0: 80bd cbbe ce75 37bf 2633 1dbf 603d 2e3f
000000e0: d43c 25bf d0e6 d7bd 787b b63e c0d6 bb3c
000000f0: a42b 76bf 04eb 413f e6ff 03bf 00d0 8c3c
00000100: 9cb9 18bf 3296 2e3f 96b2 263f 405c 53bf
00000110: 90b6 2fbf 3462 5e3f d00d 98be a881 43bf
00000120: 4cfd 693f 105f 23be 6065 35bf 60bd 853e
00000130: 148c 6fbf a0d0 0dbe 20d6 05bf b016 0e3f
00000140: 2ee4 4b3f 2c4b 24bf 803d df3c 8e93 013f
00000150: 20ea 8a3d 3085 23be a037 63bd 5024 993d
00000160: 7ce3 ec3e 0829 4e3f 9c94 09bf 64b4 f73e
00000170: 1091 823d 58e7 16be 2cc9 b2be 3020 64be
00000180: 3e0d 5c3f 983b 5d3f 687c 0ebf e835 3fbf
00000190: 0e5f 593f f80c afbe 6885 0abf 3807 18bf
000001a0: 705a 82be c8f5 02be 3086 a4be 98e5 783e
000001b0: cc62 6d3f 9842 afbe a84e a33e cc9d 17bf
000001c0: 0823 1cbf 70d7 abbd 3c48 bdbe b454 e7be
000001d0: 0eeb 53bf d0e2 f1be 0076 1dbd 0a25 2f3f
000001e0: 6c12 2e3f 64a0 52bf 28cb 12be ce86 7e3f
000001f0: a8c8 f8be 1a2a 543f 6ce4 1a3f 88c4 c53e
00000200: 98ea 70bf 0e6e 3a3f b0a1 5d3f 8866 2cbf
00000210: a8df 29bf 0012 44bd e8ef 40bf b4e8 173f
00000220: d8b6 b8be 2a91 5ebf a05d 01bd 14b0 4bbf
00000230: bac5 543f 98c4 853e 84ab 6abf 684a e83e
00000240: 30b6 163e b46e 9bbe c4b4 73bf 1c29 72bf
00000250: ae57 713f 406a a63d 30f1 283e d257 6fbf
00000260: 4089 773e 9622 2e3f 7686 353f 8a27 29bf
00000270: dc1a f0be 184b d2be f8ca 0ebf f46d f73e
00000280: dee2 66bf e484 aebe 30c7 27bf 125d 5d3f
00000290: c8ab 0bbf ccb6 fb3e 0e46 30bf ccfd 29bf
000002a0: 7cda cdbe 00db 4dbf 1637 2d3f 50ca c0bd
000002b0: 805d 5cbf a401 b5be d27d 6e3f aca9 1b3f
000002c0: d4c3 0abf 54ac 043f 20ad ab3d a2c4 72bf
000002d0: 581d 56be 2c78 1fbf 383c 95be 548c 0e3f
000002e0: d036 04bf f89d 32be 148a 203f ac60 573f
000002f0: e4b6 17bf 8ac1 083f a43b 6b3f 10f0 73be
00000300: 3c3f 82be a813 a33e e8b6 363f 683d e4be
00000310: 7ca0 f03e 08cb 62bf dade 103f 50ce 713e
00000320: c0ce 9e3c 80ad 703d 24ba b93e 2001 41be
00000330: 74cc 01bf c4f5 5e3f eca9 ba3e 8ca8 4fbf
00000340: 8215 5d3f eafe 1b3f d013 9cbd cc6a 76bf
00000350: 0e9a 7bbf 5026 bdbe 9ebf 503f c02f c93c
00000360: 769e 4e3f 541b 8a3e d8be 603e 601e e4be
00000370: ea95 593f 9c70 0cbf 7c0e cd3e e88e a8be
00000380: cc13 efbe f28c 17bf 7883 113e 0ac2 72bf
00000390: a011 593e 529a 0fbf 5019 493f b814 16be
000003a0: 106e f8bd 9447 9b3e 34c1 a53e ba86 553f
000003b0: 2405 cd3e 4086 e43c 80c8 713d 5067 a13d
000003c0: ae98 1fbf 822f 273f 608a 14be e474 2dbf
000003d0: cef8 513f 3400 f73e 8207 30bf f8bb aebe
000003e0: 38ed 603f 9a90 313f 8850 71be ac8b 86be
000003f0: 3cbe 623f 489c 2dbf de53 733f 48dc d6be

conv2.weight f4 [512, 32, 1, 1]
-0.18108392 0.24861884 -0.5002929 -0.06480694 0.19193685 -0.01700294 0.35274625 -0.8142531
0.83939564 -0.11287081 0.5826385 0.40794003 0.9490329 0.20671725 0.60340154 -0.7718369
-0.62798965 -0.9889879 -0.48253846 -0.101944566 -0.31202996 -0.8372389 -0.95784676 -0.8718537
0.5895357 0.5765041 -0.38989067 -0.3699565 -0.5568614 0.53780246 0.57017374 -0.6819136
0.5946003 0.28619993 0.6917176 -0.5039035 -0.46972132 -0.70842564 0.5784323 0.1219784
-0.60374355 -0.5760087 -0.24072552 -0.91592896 0.5241926 -0.18321753 0.6862867 0.8057169
0.8068104 -0.25161004 0.46568573 -0.0053682327 0.35639918 0.2528404 -0.941828 0.3797413
-0.28197825 0.19797611 0.5012716 0.7507732 0.75360847 0.20421362 -0.9879694 0.88543606
-0.46898842 0.98591673 -0.47370982 0.6791887 -0.92115664 -0.4650123 -0.9134166 0.4261285
0.00037658215 0.6402699 -0.2761172 -0.5837071 0.07421386 -0.85130537 0.5505074 0.36764228
0.8234527 0.6911187 0.61337614 -0.71757245 -0.36111295 0.69936717 -0.2431711 0.69430566
0.29494202 -0.7450906 0.33498406 -0.235111 0.25555515 -0.12855697 0.42614925 -0.600494
-0.9467648 0.8118756 0.19293451 -0.66966236 -0.6751754 -0.43083894 -0.33151174 0.103798985
-0.26263165 -0.3354026 -0.076824784 -0.40785635 -0.12640262 -0.8393507 0.5773103 0.8072847
-0.83132803 0.63319373 -0.8132374 -0.35481906 -0.4817506 0.7374797 0.5852634 -0.61348546
0.08173752 -0.80663395 0.21551335 -0.075639725 -0.10236442 -0.98439765 -0.04163313 -0.5765847
-0.8979579 0.27863026 0.4627527 -0.81395066 -0.16849816 0.5229838 -0.39526403 0.9212266
0.58950436 0.8631588 -0.7954893 0.059748292 0.65967166 0.75897443 -0.28854907 0.58981943
-0.6014025 -0.87431777 0.6616405 -0.118079424 -0.8046826 -0.50481486 0.5696933 0.27997637
0.92590463 0.54692435 0.4650209 0.40519762 0.23702347 0.57263124 -0.649925 0.20257032
-0.55993354 -0.63958776 0.53497267 0.99640036 -0.45103657 0.10491657 0.828899 -0.028981686
0.86358774 -0.085372925 -0.35289884 0.48056293 0.4769714 0.3566072 -0.46065235 -0.49552345
0.9732833 -0.37028813 0.9374863 -0.05242598 0.15568268 -0.006578088 0.27900136 -0.39645112
-0.7537018 -0.64328957 0.41968203 -0.2944064 0.72543097 -0.5811585 -0.7771516 -0.59364533
-0.07140291 -0.10765505 -0.39418566 -0.21922219 -0.7297789 -0.3404708 0.9860238 0.30678058
-0.22237456 0.64889836 0.6061846 0.29441583 0.3539549 -0.52615905 0.42719638 0.35670877
0.83820474 -0.46749842 -0.724288 0.56212676 0.36483967 -0.90710473 0.48594868 0.7427535
-0.9930197 0.4213767 0.95588374 0.4759096 -0.7465069 -0.56201804 -0.70581317 -0.7319336
0.92563426 0.2107153 -0.8068826 0.11371863 0.87691283 0.7064282 0.7060976 -0.26616776
0.49531364 0.35126793 -0.19053054 -0.47906375 -0.067760944 0.24624908 -0.45621455 0.8204795
0.6879947 0.31254148 -0.10404801 -0.43323612 -0.23195136 -0.6630591 -0.59812975 0.14956474
0.6277745 0.9556929 0.49968708 -0.68806374 0.56399167 0.97000504 0.4363637 0.21388566
00000000: 106e 39be f095 7e3e 3213 00bf 80b9 84bd
00000010: 188b 443e c049 8bbc 289b b43e e472 50bf
00000020: a2e2 563f d028 e7bd cc27 153f 84dd d03e
00000030: d2f3 723f b0ad 533e 8678 1a3f 1a97 45bf
00000040: eec3 20bf 502e 7dbf 480f f7be 50c8 d0bd
00000050: 64c2 9fbe 4a55 56bf 7235 75bf ce31 5fbf
00000060: d0eb 163f c695 133f c09f c7be f06a bdbe
00000070: 788e 0ebf 6cad 093f e8f6 113f e491 2ebf
00000080: ba37 183f cc88 923e 6814 313f d2ff 00bf
00000090: 507f f0be 625b 35bf 2414 143f d0cf f93d
000000a0: f08e 1abf 4e75 13bf c080 76be 527a 6abf
000000b0: 7c31 063f 609d 3bbe 7cb0 2f3f 7643 4e3f
000000c0: 208b 4e3f 08d3 80be 5c6e ee3e 00e8 afbb
000000d0: f479 b63e 4c74 813e a41b 71bf 746d c23e
000000e0: 745f 90be 40ba 4a3e 5653 003f ac32 403f
000000f0: 7cec 403f 601d 513e 90eb 7cbf f0ab 623f
00000100: 401f f0be 0a65 7c3f 188a f2be 50df 2d3f
00000110: ecd0 6bbf 1816 eebe acd5 69bf 842d da3e
00000120: 0070 c539 bae8 233f 3c5f 8dbe d46d 15bf
00000130: 70fd 973d 26ef 59bf 0eee 0c3f 9c3b bc3e
00000140: cccd 523f 28ed 303f 3806 1d3f d4b2 37bf
00000150: cce3 b8be ba09 333f d801 79be 04be 313f
00000160: a402 973e 42be 3ebf 0883 ab3e f0c0 70be
00000170: 20d8 823e 70a4 03be 3c30 da3e fab9 19bf
00000180: 2e5f 72bf 14d7 4f3f a090 453e fe6e 2bbf
00000190: 4cd8 2cbf ec96 dcbe e8bb a9be 9094 d43d
000001a0: a877 86be e4b9 abbe 5056 9dbd 8cd2 d0be
000001b0: b06f 01be b0df 56bf 9cca 133f 36aa 4e3f
000001c0: ead1 54bf fc18 223f 5430 50bf d8aa b5be
000001d0: 04a8 f6be 78cb 3c3f d2d3 153f 620d 1dbf
000001e0: 0066 a73d 907f 4ebf 88af 5c3e 00e9 9abd
000001f0: 70a4 d1bd 7c01 7cbf 8087 2abd 0e9b 13bf
00000200: 92e0 65bf a0a8 8e3e eced ec3e 125f 50bf
00000210: c88a 2cbe 44e2 053f 0c60 cabe 82d5 6b3f
00000220: c2e9 163f faf7 5c3f 30a5 4bbf a0ba 743d
00000230: 3ee0 283f 264c 423f b4bc 93be 68fe 163f
00000240: 84f5 19bf 4ad3 5fbf 4661 293f a0d3 f1bd
00000250: aeff 4dbf 8c3b 01bf 6cd7 113f 1059 8f3e
00000260: 1608 6d3f 3c03 0c3f 3817 ee3e 1076 cf3e
00000270: 48b6 723e f697 123f 7c61 26bf 986e 4f3e
00000280: ce57 0fbf 06bc 23bf f8f3 083f 1814 7f3f
00000290: 44ee e6be 80de d63d ba32 543f 006b edbc
000002a0: 1614 5d3f 00d8 aebd 28af b4be 580c f63e
000002b0: 9835 f43e 3895 b63e a0da ebbe 40b5 fdbe
000002c0: 1829 793f 6896 bdbe 1aff 6f3f a0bc 56bd
000002d0: 486b 1f3e 008d d7bb 44d9 8e3e a4fb cabe
000002e0: 9af2 40bf a0ae 24bf 90e0 d63e 70bc 96be
000002f0: d8b5 393f cec6 14bf 68f3 46bf 24f9 17bf
00000300: b03b 92bd 407a dcbd b4d2 c9be c87b 60be
00000310: cad2 3abf 3052 aebe 0e6c 7c3f 5812 9d3e
00000320: 28b6 63be 341e 263f ea2e 1b3f acbd 963e
00000330: 9439 b53e 5cb2 06bf 7cb9 da3e 88a2 b63e
00000340: 9694 563f f45b efbe f06a 39bf 8ae7 0f3f
00000350: 44cc ba3e 0438 68bf 44ce f83e 1825 3e3f
00000360: 8a36 7ebf b0be d73e ccb4 743f 6caa f33e
00000370: 141b 3fbf 6ae0 0fbf 2cb0 34bf 0060 3bbf
00000380: 5ef6 6c3f c0c5 573e dc8f 4ebf 50e5 e83d
00000390: 5c7d 603f 7ad8 343f d0c2 343f 2447 88be
000003a0: c099 fd3e 64d9 b33e 701a 43be d847 f5be
000003b0: 40c6 8abd b828 7c3e f494 e9be f20a 523f
000003c0: 6c20 303f 7005 a03e 2017 d5bd 20d1 ddbe
000003d0: a884 6dbe 3ebe 29bf 081f 19bf 8027 193e
000003e0: d4b5 203f 4aa8 743f fcd6 ff3e f224 30bf
000003f0: c261 103f 4052 783f 106b df3e d804 5b3e

conv3.weight f4 [10, 512, 1, 1]
-0.48580945 0.47927558 -0.7698164 0.64452314 0.24431169 -0.9304025 -0.090308905 0.47739267
-0.032182336 0.25856054 -0.008349061 -0.4213425 -0.59883046 0.4453082 -0.6072092 0.5420606
0.40009642 0.30225182 -0.670876 -0.93808246 0.13737547 0.33446622 0.40331244 -0.16958427
0.79968405 -0.25364137 -0.21679413 0.6499499 0.45613575 0.11014962 -0.3455243 -0.9617673
-0.7954949 -0.31722522 0.3818667 0.3224162 0.7273561 -0.34323907 0.49878597 -0.27350783
-0.045751333 0.871825 0.25869346 0.1030575 -0.86982894 -0.4983437 -0.9608946 0.6791177
0.27420652 -0.8245685 0.98557365 0.30321014 -0.42508817 0.17514217 0.085163236 -0.94361126
-0.9987378 0.6604278 0.108908296 -0.5103586 0.15967917 0.915293 -0.05229318 -0.29845786
-0.90017164 -0.39296842 0.3448739 0.68494475 0.7211331 0.42963326 -0.2830541 0.45108986
-0.7231469 -0.7522067 0.74893737 0.15412498 0.7109734 0.42855215 0.8429904 -0.8836459
0.39544678 0.7706994 -0.30352795 0.22175515 -0.8072045 -0.33421493 0.0063744783 0.64851534
0.6960087 -0.103221774 0.09860873 -0.05192089 -0.49925554 -0.001260519 -0.9418136 -0.76677084
0.44885874 0.45492244 0.33095038 0.86985004 -0.6402203 0.33595192 0.48107827 -0.012058258
0.45855916 -0.04342854 0.26422048 0.15997767 -0.47435713 -0.24445486 0.41288292 -0.27480412
-0.06833732 -0.024010539 -0.45747733 0.57008827 -0.5678226 -0.6562952 -0.8206123 0.8959427
-0.9634807 0.2506045 0.09958804 0.6017313 0.7003522 0.5949918 -0.3853531 0.80604684
-0.22489607 0.73848677 -0.20291841 0.26672304 -0.90815675 0.58182335 0.49628866 -0.060726166
-0.8768611 0.012998939 0.6038747 -0.84283113 0.8157631 -0.84273577 -0.6722983 -0.36736715
-0.9240458 -0.33798838 0.55436635 -0.5076394 0.4265313 -0.8233435 -0.02487886 0.9888452
0.38412738 0.38393593 0.6519995 -0.8178445 0.9358648 0.5354686 0.38457167 0.065197825
0.08742547 0.16495562 -0.55558896 0.9132031 0.100584745 -0.51001155 -0.23452294 0.57838106
0.4072858 0.82827127 0.37207866 0.3197956 -0.9590105 -0.40491617 0.8678291 -0.7217032
-0.8510395 -0.6267624 0.8713968 -0.7502738 0.98906076 -0.7415968 -0.011997342 -0.08318186
-0.042482972 -0.35569417 -0.36667383 0.6385678 -0.04784894 -0.14483452 0.090370536 0.57722497
0.1207695 0.21219957 0.26494372 -0.20567608 -0.31569624 0.73737395 -0.38689733 -0.22878742
-0.66752243 0.3675151 -0.3231194 0.26818478 0.74540055 -0.81453335 -0.5810065 -0.053339124
0.8561963 0.128263 -0.7089064 -0.3683735 0.3734951 -0.77859163 0.06866634 -0.8159176
0.38055277 -0.06967366 0.66059244 -0.82146895 0.39445543 0.5930768 0.4252162 0.37951434
0.49160886 0.33240008 -0.486835 -0.24890137 -0.77940273 -0.07711458 -0.7062348 0.28772593
-0.47068727 0.914739 -0.0991056 -0.68688154 -0.6970959 0.037044287 -0.21677136 0.058706403
-0.3916645 0.37957764 -0.64868176 -0.1077168 0.6501572 0.51706433 0.62542474 0.6560539
0.77862346 -0.8351649 0.991879 0.75129294 0.7351047 0.98695934 0.449026 0.38510835
00000000: 04bc f8be 9c63 f53e b012 45bf 78ff 243f
00000010: d82c 7a3e dc2e 6ebf e0f3 b8bd d06c f43e
00000020: a0d1 03bd 0c62 843e 80ca 08bc 34ba d7be
00000030: f44c 19bf 70ff e33e 1072 1bbf 7cc4 0a3f
00000040: 70d9 cc3e c0c0 9a3e 88be 2bbf 2c26 70bf
00000050: 28ac 0c3e 283f ab3e f87e ce3e 80a7 2dbe
00000060: 18b8 4c3f 48dd 81be 48ff 5dbe 1e63 263f
00000070: a08a e93e 2096 e13d 90e8 b0be 6236 76bf
00000080: 8ea5 4bbf 586b a2be 0884 c33e bc13 a53e
00000090: 0234 3a3f 08bd afbe e060 ff3e 3809 8cbe
000000a0: c065 3bbd ec2f 5f3f 7873 843e d00f d33d
000000b0: 1cad 5ebf e826 ffbe 30fd 75bf a8da 2d3f
000000c0: cc64 8c3e ec16 53bf 8e4e 7c3f 5c3e 9b3e
000000d0: 28a5 d9be 7858 333e 106a ae3d 8290 71bf
000000e0: 48ad 7fbf cc11 293f 500b df3d dca6 02bf
000000f0: f082 233e a450 6a3f 6031 56bd 78cf 98be
00000100: a671 66bf 2833 c9be 5093 b03e 8a58 2f3f
00000110: 2e9c 383f e4f8 db3e 78ec 90be 40f5 e63e
00000120: 2820 39bf 9e90 40bf 5cba 3f3f f0d2 1d3e
00000130: 5a02 363f 306b db3e 38ce 573f 9e36 62bf
00000140: 0078 ca3e 8e4c 453f 0468 9bbe c813 633e
00000150: f4a4 4ebf 381e abbe 00e1 d03b 1a05 263f
00000160: a02d 323f f065 d3bd 60f3 c93d 00ab 54bd
00000170: 6c9e ffbe 0038 a5ba b21a 71bf 184b 44bf
00000180: d0d0 e53e 98eb e83e 5472 a93e 7eae 5e3f
00000190: 7ae5 23bf e401 ac3e e44f f63e 0090 45bc
000001a0: 44c8 ea3e 20e2 31bd e847 873e 30d1 233e
000001b0: f0de f2be 6052 7abe 6465 d33e 20b3 8cbe
000001c0: 70f4 8bbd c0b1 c4bc 783a eabe 4ef1 113f
000001d0: d25c 11bf f602 28bf a613 52bf 805c 653f
000001e0: aca6 76bf 3c4f 803e d0f4 cb3d 100b 1a3f
000001f0: 484a 333f 6251 183f 004d c5be 1659 4e3f
00000200: 284b 66be 780d 3d3f d8c9 4fbe ec8f 883e
00000210: f67c 68bf 60f2 143f 8c19 fe3e 00bc 78bd
00000220: f879 60bf 80f9 543c 8897 1a3f c8c3 57bf
00000230: dad5 503f 88bd 57bf be1b 2cbf 8c17 bcbe
00000240: 448e 6cbf d00c adbe f4ea 0d3f a8f4 01bf
00000250: 5062 da3e a4c6 52bf c0ce cbbc f624 7d3f
00000260: 58ac c43e 4093 c43e 70e9 263f 425e 51bf
00000270: d694 6f3f 7814 093f 94e6 c43e 7086 853d
00000280: 200c b33d 20ea 283e 143b 0ebf aec7 693f
00000290: 60ff cd3d 1e90 02bf c826 70be c810 143f
000002a0: c487 d03e 9609 543f 1881 be3e 40bc a33e
000002b0: b681 75bf 2c51 cfbe 0c2a 5e3f 8ac1 38bf
000002c0: badd 59bf 8073 20bf dc13 5f3f f211 40bf
000002d0: 1633 7d3f 4ad9 3dbf 8090 44bc 405b aabd
000002e0: a002 2ebd 8c1d b6be acbc bbbe 2e79 233f
000002f0: 40fd 43bd 804f 14be 3014 b93d 04c5 133f
00000300: 0056 f73d d84a 593e b4a6 873e c09c 52be
00000310: f0a2 a1be 8ac4 3c3f 6817 c6be 4047 6abe
00000320: c0e2 2abf f02a bc3e e86f a5be 844f 893e
00000330: 92d2 3e3f 4285 50bf d8bc 14bf 207a 5abd
00000340: ae2f 5b3f 6057 033e e47a 35bf 749b bcbe
00000350: c03a bf3e c851 47bf f0a0 8c3d fadf 50bf
00000360: d0d7 c23e 10b1 8ebd 961c 293f ca4b 52bf
00000370: 10f6 c93e e2d3 173f f0b5 d93e b44f c23e
00000380: 28b4 fb3e 5830 aa3e 7042 f9be 00e0 7ebe
00000390: f086 47bf 40ee 9dbd cecb 34bf d050 933e
000003a0: ecfd f0be 562c 6a3f e0f7 cabd 78d7 2fbf
000003b0: e074 32bf c0bb 173d 50f9 5dbe 2076 703d
000003c0: 4088 c8be 0058 c23e 0210 26bf a09a dcbd
000003d0: b470 263f 545e 043f d61b 203f 26f3 273f
000003e0: de53 473f 5ecd 55bf c8eb 7d3f bc54 403f
000003f0: d22f 3c3f 5ea9 7c3f bce6 e53e ec2c c53e
