src/bindings/python/tests_compatibility/test_utils/utils/test_model.onnx (onnx, 356721 bytes, 16 tensors)

1 f4 [16, 3, 5, 5]
-0.039135754 -0.11558315 -0.05133569 -0.005471338 0.0064744526 -0.058115125 -0.013307493 0.037709422
-0.037435956 0.028310506 0.052817106 0.13072415 0.074311666 0.021453641 0.08668256 0.06330399
0.039999716 0.0648163 0.09898431 0.019418275 0.02529773 0.044844717 0.0830585 0.11213924
0.110220715 -0.10149595 0.026751347 0.03608115 -0.035050526 0.055454474 0.03813728 0.009487014
0.1260677 0.19407785 0.031117223 -0.033328608 -0.026376406 -0.0675 0.02855053 0.08850797
-0.070002496 -0.055437427 -0.04612559 -0.027160034 0.050793156 -0.0075450027 0.059989117 -0.10291917
-0.042706285 -0.048336864 0.035420787 0.031028192 0.0894623 0.17372404 0.016493956 -0.09055729
0.055438057 -0.0066823815 0.2264292 0.0010762681 -0.18242925 -0.15627912 0.073257305 0.12407912
0.14013588 -0.12875716 -0.095775686 -0.06272866 0.047648676 -0.0060394113 -0.12608756 -0.120906584
-0.12326146 -0.077653885 0.021189466 0.023408288 -0.07020905 -0.120500244 -0.06870797 -0.1021003
-0.023763066 -0.111965455 0.08895188 0.06461363 0.0015298786 -0.07154218 -0.005428019 -0.023912737
-0.026896749 -0.09556964 -0.021444883 -0.088831894 -0.12875107 -0.030114735 0.00070159626 -0.081567295
-0.091170155 -0.11526213 -0.0075388993 -0.10363382 0.026657026 0.083289415 -0.06320816 0.012892279
0.048335858 0.12237887 0.03746775 -0.026938178 -0.062764086 0.09223334 -0.069362156 -0.041797865
0.08646739 0.113859884 -0.12733516 -0.007970124 0.0072280397 0.09258113 -0.06559597 0.0014367078
-0.035372455 0.020418046 0.04520767 0.023312274 0.020680496 -0.066999465 0.070286304 0.0327587
-0.089912534 -0.10482388 0.023725107 0.17516953 0.17097154 -0.045734808 0.003459204 -0.03378164
0.047379375 -0.017344255 0.10075761 0.1177581 0.029375162 0.16918379 0.03287046 0.014346317
0.078224935 -0.02112983 0.021844752 0.09108015 -0.037673946 0.12660342 -0.12773429 -0.18078536
-0.15584302 -0.017079297 -0.02628212 -0.05502044 -0.1531826 -0.17642948 -0.17565484 -0.08362825
0.11741803 0.11082023 0.12888484 0.08312979 -0.043759853 0.106590636 0.15390745 0.07556332
0.129603 -0.007949158 0.03399244 0.123523176 0.15067624 0.006437216 0.029555032 0.04051761
-0.065983474 -0.002763469 -0.114644475 -0.044861868 0.044673588 0.0010377544 -0.018398918 -0.01498005
-0.10123965 -0.0367279 0.06007133 -0.08665202 -0.073878884 -0.01513261 0.0041104034 -0.04859342
0.022772811 0.03175314 0.06878072 -0.070125334 0.004359668 -0.058847047 -0.0040271427 -0.056983568
-0.10656942 -0.08533134 -0.16182871 -0.0895233 0.012726267 -0.061619792 -0.043911304 0.029170375
0.0078181755 0.0853317 -0.014297269 0.030870182 0.027592292 0.09420518 0.08274394 0.03577665
0.13354214 0.15679476 0.092966706 -0.05084524 0.08083506 0.04676916 0.0068249633 0.010076542
-0.0073182634 -0.10706306 -0.09003451 -0.10293682 -0.031913687 -0.07545703 -0.1136261 -0.1094243
-0.032825768 -0.013979531 -0.014906464 0.08216455 -0.07785522 -0.08894716 -0.13168773 -0.07995564
0.117454275 0.21965149 0.18280494 0.049324006 -0.013589056 0.032947373 0.051657245 0.06494921
0.18968748 0.16806251 0.021413194 0.11263184 0.11229034 0.08879066 0.078277685 0.0803222
00000000: d04c 20bd dcb6 ecbd 5f45 52bd e948 b3bb
00000010: a527 d43b 200a 6ebd ac07 5abc 3275 1a3d
00000020: 7256 19bd 6feb e73c c056 583d 8ddc 053e
00000030: b730 983d 8cbf af3c a086 b13d 86a5 813d
00000040: bed6 233d 69be 843d 49b8 ca3d 1313 9f3c
00000050: 2f3d cf3c 18af 373d 931a aa3d 42a9 e53d
00000060: 66bb e13d 1cdd cfbd a425 db3c d4c9 133d
00000070: 2491 0fbd 3b24 633d d635 1c3d 6c6f 1b3c
00000080: e417 013e 58bc 463e 8ce9 fe3c 9483 08bd
00000090: 5513 d8bc 713d 8abd cde2 e93c ab43 b53d
000000a0: 785d 8fbd 5b12 63bd 30ee 3cbd b87e debc
000000b0: 7c0c 503d 123c f7bb 26b7 753d 49c7 d2bd
000000c0: c9ec 2ebd e0fc 45bd 6315 113d d62e fe3c
000000d0: 0338 b73d b7e4 313e 551e 873c 1a76 b9bd
000000e0: 0413 633d e1f7 dabb 0edd 673e 9111 8d3a
000000f0: bcce 3abe a207 20be ed07 963d 321d fe3d
00000100: c87f 0f3e ebd8 03be 0b26 c4bd e277 80bd
00000110: 422b 433d 41e6 c5bb 191d 01be df9d f7bd
00000120: 8170 fcbd 0009 9fbd 8895 ad3c bdc2 bf3c
00000130: c3c9 8fbd d5c8 f6bd c4b6 8cbd f619 d1bd
00000140: c3aa c2bc 254e e5bd 672c b63d 2754 843d
00000150: 3586 c83a b584 92bd 86dd b1bb a5e4 c3bc
00000160: 9256 dcbc 04ba c3bd 2ead afbc 7fed b5bd
00000170: 52d7 03be 2db3 f6bc 54eb 373a c10c a7bd
00000180: 6bb7 babd 8d0e ecbd df08 f7bb f83d d4bd
00000190: d65f da3c a493 aa3d 4873 81bd 233a 533c
000001a0: d2fb 453d c6a1 fa3d c977 193d 74ad dcbc
000001b0: 758a 80bd d5e4 bc3d bf0d 8ebd 3d34 2bbd
000001c0: d115 b13d 5f2f e93d 2664 02be 1f95 02bc
000001d0: 31d9 ec3b 2d9b bd3d 2e57 86bd ea4f bc3a
000001e0: b5e2 10bd bf43 a73c ae2b 393d 62f9 be3c
000001f0: 256a a93c 0437 89bd 44f2 8f3d fd2d 063d
00000200: 1024 b8bd e7ad d6bd 285b c23c a45f 333e
00000210: 2a13 2f3e 6c54 3bbd d0b3 623b 9e5e 0abd
00000220: e010 423d 8a15 8ebc 015a ce3d 292b f13d
00000230: 2ea4 f03c 843e 2d3e 2da3 063d d10c 6b3c
00000240: 6534 a03d 7718 adbc c4f3 b23c 3b88 ba3d
00000250: ff4f 1abd 54a4 013e c7cc 02be cc1f 39be
00000260: 5095 1fbe e2e9 8bbc 9a4d d7bc 1d5d 61bd
00000270: e6db 1cbe eea9 34be ddde 33be 4a45 abbd
00000280: dd78 f03d b7f5 e23d 63fa 033e f43f aa3d
00000290: 883d 33bd 314c da3d ea99 1d3e f1c0 9a3d
000002a0: a6b6 043e 2f3d 02bc a83b 0b3d b8f9 fc3d
000002b0: df4a 1a3e 48ef d23b 651d f23c cbf5 253d
000002c0: 5822 87bd 511b 35bb b9ca eabd 14c1 37bd
000002d0: a7fb 363d 4205 883a 54b9 96bc e26e 75bc
000002e0: bc56 cfbd ff6f 16bd 5b0d 763d 9d76 b1bd
000002f0: d04d 97bd c4ee 77bc 90b0 863b e509 47bd
00000300: 0c8e ba3c 950f 023d e8dc 8c3d df9d 8fbd
00000310: 8cdb 8e3b 9a09 71bd 1ff6 83bb 9a67 69bd
00000320: 1141 dabd 33c2 aebd 6db6 25be fe57 b7bd
00000330: d581 503c 0965 7cbd 57dc 33bd b6f6 ee3c
00000340: ce17 003c 63c2 ae3d 183f 6abc 77e3 fc3c
00000350: 3b09 e23c a5ee c03d a875 a93d 898a 123d
00000360: 45bf 083e ce8e 203e 5465 be3d 1943 50bd
00000370: da8c a53d 0591 3f3d f1a3 df3b 1518 253c
00000380: 0bce efbb e143 dbbd 0364 b8bd 8ad0 d2bd
00000390: edb7 02bd 3789 9abd cdb4 e8bd d919 e0bd
000003a0: 5074 06bd 670a 65bc 3e3a 74bc e345 a83d
000003b0: 8f72 9fbd ee29 b6bd 26d9 06be c8bf a3bd
000003c0: de8b f03d 52ec 603e 3831 3b3e f807 4a3d
000003d0: a2a4 5ebc d3f3 063d 8c96 533d 1704 853d
000003e0: 6f3d 423e 9418 2c3e b96a af3c 86ab e63d
000003f0: 7af8 e53d e1d7 b53d 0d50 a03d f77f a43d

2 f4 [16]
0.021180509 -0.0848251 0.037366252 -0.115808904 -0.06712751 -0.07100884 -0.049769934 -0.07533059
0.0007333559 0.08679169 0.02611725 0.055215474 0.048976462 0.01795831 -0.09757647 0.008211875
00000000: bf82 ad3c c8b8 adbd 5b0d 193d 382d edbd
00000010: 267a 89bd 156d 91bd 8fdb 4bbd ed46 9abd
00000020: ae3e 403a d7bf b13d d8f3 d53c 9f29 623d
00000030: 8b9b 483d 4e1d 933c 2cd6 c7bd 1a8b 063c

3 f4 [16]
0.60256606 0.92195904 0.2228639 0.1853296 0.753743 0.2721639 0.40021756 0.79086584
0.24964306 0.7368108 1.0244702 0.50953525 0.63432956 0.88587654 0.21381547 0.9429721
00000000: c541 1a3f 8205 6c3f 6f36 643e 0bc7 3d3e
00000010: 4df5 403f 1159 8b3e 51e9 cc3e 2f76 4a3f
00000020: 6ea2 7f3e a29f 3c3f d721 833f e770 023f
00000030: 6c63 223f cec8 623f 71f2 5a3e 9f66 713f

4 f4 [16]
-0.11106479 0.13259575 -0.015930466 -0.06616134 -0.11701021 -0.050512064 -0.016424041 -0.0010237086
-0.07351521 -0.23145206 -0.21762423 -0.11256864 -0.181359 -0.2534692 -0.09667697 -0.091228575
00000000: f075 e3bd 2ec7 073e 9c80 82bc 997f 87bd
00000010: 0da3 efbd bde5 4ebd b68b 86bc f62d 86ba
00000020: 248f 96bd c501 6dbe e3d8 5ebe 638a e6bd
00000030: 2cb6 39be b7c6 81be 93fe c5bd 0cd6 babd

5 f4 [16]
0.37388158 -0.10590373 -0.05363467 -0.15855168 -0.22746427 -0.122415245 -0.07446308 -0.06316386
-0.048276592 0.10743867 -0.021745358 -0.0016318683 -0.025543144 -0.044083785 -1.1606339 -0.07658922
00000000: 686d bf3e 0ee4 d8bd 07b0 5bbd 5f5b 22be
00000010: 65ec 68be d8b4 fabd 1980 98bd 0e5c 81bd
00000020: adbd 45bd ce08 dc3d 5223 b2bc 6ae4 d5ba
00000030: db3f d1bc 3391 34bd a78f 94bf cfda 9cbd

6 f4 [16]
0.08595507 0.03027556 0.1099393 0.01764963 0.15479204 0.0082973605 0.014431062 0.0125544565
0.063846335 0.013526411 0.020962423 0.10455071 0.011300869 0.0376079 0.32304758 0.04503952
00000000: 3609 b03d 7404 f83c db27 e13d f595 903c
00000010: ce81 1e3e a7f1 073c 4370 6c3c 35b1 4d3c
00000020: dec1 823d e19d 5d3c 63b9 ab3c af1e d63d
00000030: 4827 393c be0a 1a3d 7e66 a53e 5c7b 383d

8 f4 [32, 16, 5, 5]
0.024320295 0.05239938 0.015064561 0.015216316 -0.013695899 -0.07970226 -0.024014618 -0.03612924
0.019884923 -0.059385255 -0.04623474 -0.07406592 -0.0060358695 -0.04329874 -0.06424981 0.04804945
-0.03803086 0.014652481 -0.024350416 0.040795024 0.060044296 0.084671974 0.09269812 0.07304814
0.04300866 -0.011009085 -0.023250489 0.0291136 0.042224392 0.01661855 -0.012617155 -0.038790762
0.018544257 -0.037102345 -0.03588157 -0.0986659 -0.042090774 -0.08631145 -0.11170374 -0.03196019
0.059822183 0.029310107 0.088012226 0.0077770473 -0.049061175 0.02570996 0.079551384 0.09605625
-0.004052086 0.020988245 -0.011185618 -0.022277849 -0.052136794 -0.0018132839 -0.078904815 -0.030603142
-0.049665976 -0.08853757 -0.018217158 0.026380112 -0.095551446 -0.13136011 -0.06796483 -0.10630404
-0.09518815 0.063622735 0.078152165 0.16281655 0.1824031 0.15766962 0.1165835 0.17483738
0.17580195 0.14486308 0.21354157 -0.12416093 -0.17326316 -0.1698291 -0.25118577 -0.24331313
-0.15150905 -0.2503898 -0.24162611 -0.1728837 -0.22375554 -0.15587209 -0.087175466 -0.042611323
-0.042542584 0.016486678 0.0054122237 0.026352802 0.07006991 0.14664939 0.15164769 0.0426422
-0.066597454 -0.10443429 0.006072246 -0.0028153022 -0.03258093 0.061964847 -0.010561243 -0.02653312
0.041862253 -0.03827084 -0.029545955 0.04193892 -0.02399801 0.040982302 -0.010235148 -0.01594398
-0.059889436 -0.005853644 0.04619147 0.031483166 -0.03658478 0.01853159 -0.0036157665 0.0796031
-0.062244594 0.07494359 0.0118977325 0.0012992148 0.02543862 0.01849135 -0.037857816 -0.110548474
-0.14051645 -0.13517109 0.02721909 -0.07203557 -0.09625773 -0.092735805 -0.016165165 0.08558918
0.12585965 0.12547547 0.18781455 0.1527323 0.03893001 0.11212269 0.098514326 0.10671318
0.21612465 0.07919522 0.045913506 0.005264557 0.07029773 0.033270232 0.014196473 -0.024108578
-0.012348107 0.012028821 -0.055421945 -0.0014894337 -0.027149307 -0.026631463 0.06809406 -0.047863685
0.056094054 0.03283673 0.018054904 -0.01371315 -0.053717744 -0.01564983 0.07188047 -0.038915463
0.02024602 -0.013364782 -0.13700245 -0.13453582 -0.06811637 -0.06266679 -0.09626551 0.06292582
0.054755654 -0.039742373 -0.0233611 -0.071955614 0.014647799 0.023338549 -0.023153782 -0.03910818
0.019818539 0.08280653 -0.011215487 -0.07660007 0.04648963 0.012355833 0.012243344 0.04705854
-0.031339217 -0.050527047 -0.010162205 0.020965219 0.002294221 -0.023833029 -0.0604123 -0.016257131
-0.040839452 -0.022202928 -0.010410749 -0.01988028 -0.069045424 -0.122283906 -0.079464056 -0.123721935
-0.0998139 -0.039144296 -0.0467347 -0.1465048 -0.14906643 -0.14160742 -0.0806387 -0.06583081
0.01983281 -0.0019608233 -0.016664084 0.024752054 0.027753806 0.06544941 0.091791265 0.07601411
0.08855805 0.017134016 -0.023399586 0.046372317 0.056389425 -0.022021951 -0.021398054 -0.1004035
-0.081128895 -0.04116591 -0.047400426 -0.061413385 0.0075574513 -0.0013075168 -0.033297498 0.004404163
0.016252905 0.012045078 -0.012492475 0.008625436 0.09164615 -0.004630141 -0.07998582 -0.0118518565
0.0694632 0.073474705 -0.041591104 0.014492813 -0.13014275 -0.09491293 -0.03605205 -0.043075085
00000000: 5b3b c73c bba0 563d 59d1 763c db4d 793c
00000010: c464 60bc f03a a3bd 4eba c4bc 41fc 13bd
00000020: b5e5 a23c f43d 73bd a460 3dbd e0af 97bd
00000030: 8bc8 c5bb 055a 31bd 6895 83bd 80cf 443d
00000040: 3fc6 1bbd f610 703c 867a c7bc af18 273d
00000050: 02f1 753d 8068 ad3d 83d8 bd3d 439a 953d
00000060: d929 303d 735f 34bc cf77 bebc a57f ee3c
00000070: 7cf3 2c3d a023 883c 2fb8 4ebc 10e3 1ebd
00000080: 20ea 973c a1f8 17bd 8ef8 12bd 5911 cabd
00000090: 6067 2cbd 0fc4 b0bd eec4 e4bd b0e8 02bd
000000a0: 1b08 753d c01b f03c c13f b43d 9ad6 fe3b
000000b0: 5ff4 48bd b29d d23c d6eb a23d 24b9 c43d
000000c0: 5cc7 84bb 8aef ab3c e243 37bc 0980 b6bc
000000d0: 648d 55bd b6ab edba d998 a1bd 71b3 fabc
000000e0: 8d6e 4bbd 2f53 b5bd 263c 95bc 1b1b d83c
000000f0: 7ab0 c3bd 4483 06be 2531 8bbd efb5 d9bd
00000100: 01f2 c2bd a34c 823d 3e0e a03d 62b9 263e
00000110: e1c7 3a3e 2574 213e 54c3 ee3d 9208 333e
00000120: 6d05 343e fd56 143e a4aa 5a3e 1648 febd
00000130: e66b 31be aee7 2dbe 6c9b 80be 1427 79be
00000140: 3025 1bbe 1833 80be d66c 77be 6d08 31be
00000150: 2c20 65be ef9c 1fbe 0d89 b2bd 3689 2ebd
00000160: 2241 2ebd 120f 873c 0659 b13b d5e1 d73c
00000170: d080 8f3d 422b 163e 8849 1b3e 96a9 2e3d
00000180: 3f64 88bd a5e1 d5bd b1f9 c63b ef80 38bb
00000190: 9573 05bd dace 7d3d 1009 2dbc fc5b d9bc
000001a0: c177 2b3d e2c1 1cbd 5c0a f2bc 25c8 2b3d
000001b0: 7a97 c4bc 0fdd 273d 52b1 27bc f39c 82bc
000001c0: a04e 75bd edcf bfbb 4433 3d3d 7ef4 003d
000001d0: ecd9 15bd 90cf 973c 7ff6 6cbb f306 a33d
000001e0: 30f4 7ebd 067c 993d b5ee 423c 6a4a aa3a
000001f0: a764 d03c 2c7b 973c cc10 1bbd 3d67 e2bd
00000200: 8be3 0fbe 4a6a 0abe 92fa de3c 6387 93bd
00000210: c622 c5bd 45ec bdbd cf6c 84bc 6149 af3d
00000220: 5ae1 003e a47c 003e 7552 403e db65 1c3e
00000230: 1375 1f3d 95a0 e53d e1c1 c93d 718c da3d
00000240: c84f 5d3e 1a31 a23d cd0f 3c3d 4e82 ac3b
00000250: 42f8 8f3d 5e46 083d 5398 683c 5a7f c5bc
00000260: b74f 4abc 8814 453c 1f02 63bd 1a39 c3ba
00000270: 3968 debc 3a2a dabc e674 8b3d b60c 44bd
00000280: e1c2 653d cf7f 063d e1e7 933c 1fad 60bc
00000290: 2307 5cbd 1334 80bc 1136 933d d265 1fbd
000002a0: fbda a53c f5f7 5abc 5f4a 0cbe c2c3 09be
000002b0: 9880 8bbd 7257 80bd da26 c5bd 41df 803d
000002c0: 7747 603d e6c8 22bd c75f bfbc 775d 93bd
000002d0: 52fd 6f3c 7c30 bf3c 00ad bdbc e62f 20bd
000002e0: 7d5a a23c 7896 a93d 29c1 37bc 7fe0 9cbd
000002f0: e96b 3e3d 1f70 4a3c 4f98 483c 75c0 403d
00000300: 8d5d 00bd 73f5 4ebd 617f 26bc 40bf ab3c
00000310: a45a 163b 7c3d c3bc e372 77bd ad2d 85bc
00000320: 4547 27bd eae2 b5bc d991 2abc f8db a2bc
00000330: b067 8dbd fc6f fabd 0dbe a2bd ed61 fdbd
00000340: 3b6b ccbd c555 20bd e36c 3fbd 5b05 16be
00000350: dfa4 18be 8901 11be e725 a5bd 4ed2 86bd
00000360: 6b78 a23c 2881 00bb 1e83 88bc d2c4 ca3c
00000370: f35b e33c 570a 863d 0ffd bb3d 49ad 9b3d
00000380: ec5d b53d a35c 8c3c 7db0 bfbc e6f0 3d3d
00000390: 99f8 663d 6167 b4bc f94a afbc 5aa0 cdbd
000003a0: e826 a6bd 969d 28bd f326 42bd 9a8c 7bbd
000003b0: 7fa4 f73b fc60 abba f562 08bd cc50 903b
000003c0: d024 853c b858 453c 3dad 4cbc b351 0d3c
000003d0: fab0 bb3d 70b8 97bb 9bcf a3bd 4a2e 42bc
000003e0: b942 8e3d e879 963d 6f5b 2abd 4373 6d3c
000003f0: 2444 05be b661 c2bd 50ab 13bd 806f 30bd

9 f4 [32]
0.18350497 -0.14372317 -0.07519034 -0.02230214 -0.022913288 0.020048007 0.07216339 0.03561125
0.021227432 -0.032193802 -0.039128754 -0.031103563 -0.054052386 0.1330042 -0.056043938 0.14319077
-0.07740379 0.0151798185 -0.10824417 -0.00697924 -0.024353549 -0.083491154 -0.22152504 -0.1521737
0.032791793 -0.14637034 -0.017598862 -0.33036992 -0.12423194 -0.09081925 -0.107472934 -0.058137707
00000000: bae8 3b3e 2b2c 13be 65fd 99bd fab2 b6bc
00000010: a6b4 bbbc b83b a43c 66ca 933d 1add 113d
00000020: 27e5 ad3c a6dd 03bd 7945 20bd e6cc febc
00000030: 0966 5dbd 4132 083e 548e 65bd 9aa0 123e
00000040: e185 9ebd c6b4 783c 1faf ddbd 1cb2 e4bb
00000050: 1881 c7bc 69fd aabd 76d7 62be 6cd3 1bbe
00000060: b050 063d 1be2 15be 7d2b 90bc 3f26 a9be
00000070: 516d febd 71ff b9bd c51a dcbd ce21 6ebd

10 f4 [64, 32, 3, 3]
0.013104645 0.064249754 -0.022884531 0.056925703 -0.027691316 0.028164435 0.0040403646 -0.05312167
0.07105763 0.10715314 -0.025800442 0.02268437 0.09733009 -0.022343788 -0.059176806 0.096801125
0.0081765335 -0.060819823 0.016165193 0.027221965 0.030576477 0.052304156 0.04511266 -0.034715727
-0.005285692 0.037442017 0.03996365 -0.005889231 0.067481264 -0.054960307 -0.10346394 -0.093398646
-0.050768282 -0.057328783 0.010143479 0.032696538 0.03417496 -0.022318061 0.0051964126 -0.0070393076
-0.053428832 0.02786384 0.054792654 -0.04066094 -0.107676186 0.04403496 -0.03435264 -0.09544825
0.0978698 -0.034046337 -0.024111029 0.08129829 0.015773715 -0.0076417755 -0.027617723 -0.01574117
-0.07118344 -0.010020597 -0.04003898 -0.05540608 -0.040944394 -0.028798653 0.015855111 0.1548904
-0.02323575 -0.009639197 0.1295429 0.1439237 -0.022538047 -0.042283773 0.008971372 -0.10351624
-0.004509948 -0.11384628 -0.013257714 0.0064161634 0.0064722835 0.01663406 -0.0015669346 0.04589464
0.003515322 -0.113350324 -0.01781674 0.107064836 -0.12217302 -0.06828283 -0.047294617 -0.08231913
-0.15059237 -0.06275517 -0.05472637 -0.017300991 -0.10531412 -0.008753692 0.0065028006 0.008726156
-0.00044613253 -0.08261639 -0.01044471 0.08522839 0.12943423 -0.05167278 0.17772536 0.16353284
0.11366871 0.14599985 0.18060149 0.12599933 0.08618234 0.07373652 0.007836232 -0.020328125
0.084895 0.007041709 0.046412952 0.033955857 0.07893588 -0.044207014 0.0023906308 -0.06409471
-0.05582751 0.012235695 0.02814222 -0.0597549 -0.015892766 0.030536354 0.016142512 0.011000461
-0.07553535 -0.0136446105 0.07771798 -0.04755279 0.0742533 0.0915077 -0.0020659491 0.038698126
-0.018548518 0.012774367 0.02352438 -0.07074241 0.03947433 0.059616677 0.015982097 0.073468536
-0.047143206 -0.14543621 0.034343943 0.037894115 -0.053796712 -0.094894774 0.07704028 -0.052154608
-0.109086476 0.0054112393 -0.018721102 -0.11558668 0.0008159365 -0.020274492 0.015991297 0.06132321
-0.07012815 0.055668425 0.050966978 -0.08954313 -0.045328002 0.029817702 0.020696228 -0.15346546
0.060867995 -0.04125415 -0.08946621 0.15104942 0.045816317 0.013910962 -0.008432486 -0.12445665
-0.025476819 0.12428749 -0.03425927 -0.0361653 0.036091756 -0.052855592 -0.07119937 0.05096204
0.0715905 -0.021469079 -0.09002809 -0.03133672 0.051417284 0.09509461 -0.010429895 -0.07016069
0.1350041 0.027544966 0.048739895 0.061671823 -0.04183868 -0.04175328 0.07342143 0.03115413
0.03483785 0.049617775 0.009324347 0.051475808 -0.020195013 0.03528402 -0.049099628 -0.06514732
0.06515973 0.005981628 0.018513314 -0.0073568886 0.045399483 -0.07076927 0.058072906 -0.01964993
-0.082034856 -0.10173154 -0.06076992 0.003995391 -0.076396964 -0.03568746 0.05725342 -0.0022802502
-0.043195345 0.013941964 -0.012662651 -0.022241702 -0.059493817 -0.003135185 0.03492692 -0.071866184
-0.055699848 0.032112297 -0.018039584 -0.004260528 -0.06226093 -0.009186934 -0.008634482 0.015624977
-0.043298278 0.02273031 -0.051933892 -0.027991377 0.014743703 0.092196725 -0.017091421 0.007484796
0.020224798 -0.17610097 -0.11285075 -0.023432434 0.08021593 -0.0010875566 0.047822945 0.06615405
00000000: ddb4 563c 6095 833d 5778 bbbc ed2a 693d
00000010: e6d8 e2bc 1ab9 e63c 0965 843b 1c96 59bd
00000020: aa86 913d 1b73 db3d 735b d3bc 92d4 b93c
00000030: 0055 c73d 520a b7bc 6163 72bd ab3f c63d
00000040: def6 053c 351e 79bd de6c 843c 9900 df3c
00000050: 857b fa3c e23c 563d 0dc8 383d 1432 0ebd
00000060: 9933 adbb cd5c 193d edb0 233d 73fa c0bb
00000070: 9e33 8a3d 0f1e 61bd e7e4 d3bd ca47 bfbd
00000080: 67f2 4fbd 96d1 6abd d630 263c ceec 053d
00000090: 0bfb 0b3d 5ed4 b6bc ab46 aa3b fea9 e6bb
000000a0: 31d8 5abd b542 e43c 436e 603d 168c 26bd
000000b0: 5585 dcbd 015e 343d 5bb5 0cbd 5f7a c3bd
000000c0: f66f c83d 2c74 0bbd 7e84 c5bc b87f a63d
000000d0: e137 813c dc67 fabb 903e e2bc a0f3 80bc
000000e0: a0c8 91bd 6e2d 24bc eaff 23bd 7cf1 62bd
000000f0: 4fb5 27bd 27eb ebbc 94e2 813c 979b 1e3e
00000100: e658 bebc b9ed 1dbc e5a6 043e bc60 133e
00000110: b6a1 b8bc c031 2dbd a9fc 123c 5300 d4bd
00000120: 30c8 93bb 3d28 e9bd e236 59bc ae3e d23b
00000130: 7315 d43b 2744 883c 9a61 cdba 05fc 3b3d
00000140: 5161 663b 3724 e8bd 69f4 91bc cf44 db3d
00000150: d935 fabd ded7 8bbd 00b8 41bd ef96 a8bd
00000160: e334 1abe c885 80bd c228 60bd cfba 8dbc
00000170: eeae d7bd a56b 0fbc 7215 d53b 27f8 0e3c
00000180: e5e6 e9b9 c832 a9bd 4a20 2bbc 398c ae3d
00000190: 688a 043e d6a6 53bd a3fd 353e 2775 273e
000001a0: 24cb e83d fc80 153e 99ef 383e f805 013e
000001b0: 5e80 b03d 2c03 973d 8a63 003c 2b87 a6bc
000001c0: 6edd ad3d 23be e63b 821b 3e3d 4c15 0b3d
000001d0: 22a9 a13d 6a12 35bd 21ac 1c3b 1644 83bd
000001e0: 63ab 64bd 3978 483c 838a e63c 8ec1 74bd
000001f0: 8c31 82bc 6027 fa3c 4d3d 843c 473b 343c
00000200: 47b2 9abd a58d 5fbc 9b2a 9f3d b7c6 42bd
00000210: 1d12 983d 6468 bb3d e064 07bb ed81 1e3d
00000220: 10f3 97bc 944b 513c 33b6 c03c 66e1 90bd
00000230: d6af 213d 9e30 743d e3ec 823c ac76 963d
00000240: 3c19 41bd 3bed 14be 3cac 0c3d dc36 1b3d
00000250: f159 5cbd 3158 c2bd 4bc7 9d3d 12a0 55bd
00000260: bb68 dfbd c450 b13b ff5c 99bc b6b8 ecbd
00000270: 92e4 553a b116 a6bc 2e00 833c 0c2e 7b3d
00000280: 599f 8fbd 9304 643d c0c2 503d 6362 b7bd
00000290: dba9 39bd 4144 f43c 238b a93c 0d26 1dbe
000002a0: b850 793d 1dfa 28bd 0f3a b7bd b3ac 1a3e
000002b0: e4a9 3b3d ceea 633c 6928 0abc 21e3 febd
000002c0: c3b4 d0bc 718a fe3d 7353 0cbd 1122 14bd
000002d0: f3d4 133d 1b7f 58bd fad0 91bd 92bd 503d
000002e0: 0a9e 923d ecdf afbc a660 b8bd ef5a 00bd
000002f0: ee9a 523d f6c0 c23d 26e2 2abc 68b0 8fbd
00000300: 843e 0a3e fba5 e13c 7ca3 473d 989b 7c3d
00000310: 095f 2bbd 7d05 2bbd fa5d 963d f236 ff3c
00000320: 22b2 0e3d 023c 4b3d 25c5 183c 4cd8 523d
00000330: 0370 a5bc fa85 103d b11c 49bd f56b 85bd
00000340: 7772 853d 8801 c43b 3ca9 973c 0e12 f1bb
00000350: cff4 393d 7bef 90bd dbdd 6d3d e4f8 a0bc
00000360: e401 a8bd a058 d0bd e1e9 78bd c5eb 823b
00000370: 0376 9cbd 042d 12bd 9082 6a3d 4070 15bb
00000380: 9aed 30bd d66c 643c 0277 4fbc 3b34 b6bc
00000390: caaf 73bd ad77 4dbb 880f 0f3d 942e 93bd
000003a0: 8625 64bd 2f88 033d c0c7 93bc e69b 8bbb
000003b0: 5105 7fbd cb84 16bc a477 0dbc e7ff 7f3c
000003c0: 8959 31bd ea34 ba3c a2b8 54bd 2c4e e5bc
000003d0: 938f 713c a3d1 bc3d 4f03 8cbc 0543 f53b
000003e0: 7aae a53c d053 34be 4b1e e7bd 60f5 bfbc
000003f0: 4048 a43d 588c 8eba fee1 433d c67b 873d

11 f4 [64]
0.026586665 0.031965006 0.04888621 0.019378928 0.059785508 0.0024831195 -0.0032270567 0.034121733
0.035680313 -0.05836739 0.033043597 0.031285767 -0.051297173 -0.053296085 -0.009239811 -0.037088264
-0.034443393 -0.033131197 0.03503395 0.033755388 -0.024709292 0.038171515 -0.012802003 0.05797599
-0.019596042 -0.0016393401 -0.013136826 -0.049965553 0.05036767 -0.0061415485 0.023077674 0.04898537
0.047667105 -0.011610409 -0.04508755 -0.015312957 -0.01056174 -0.03881447 0.033702 0.004674695
0.05415423 -0.043233346 -0.0039157327 0.00642634 -0.031437937 0.059422337 0.02560718 0.03253386
0.04147025 0.015288906 0.057509407 0.008427925 -0.011684022 -0.037752543 -0.056739587 0.029482212
-0.014275159 -0.02786367 -0.030679652 0.0030494207 -0.014796165 -0.056171827 -0.034764886 0.009768193
00000000: 47cc d93c bded 023d e83c 483d 8fc0 9e3c
00000010: a6e1 743d d5bb 223b 077d 53bb 3bc3 0b3d
00000020: 8525 123d a512 6fbd b958 073d 8125 003d
00000030: fc1c 52bd ff4c 5abd 9462 17bc dde9 17bd
00000040: 8414 0dbd 94b4 07bd c27f 0f3d 1743 0a3d
00000050: 246b cabc bc59 1c3d 7ebf 51bc 3b78 6d3d
00000060: e187 a0bc 20df d6ba d83b 57bc aea8 4cbd
00000070: 544e 4e3d 0b3f c9bb 640d bd3c e2a4 483d
00000080: 953e 433d 9639 3ebc b9ad 38bd 32e3 7abc
00000090: 260b 2dbc ecfb 1ebd 1c0b 0a3d 2f2e 993b
000000a0: d3d0 5d3d 7315 31bd 8c4f 80bb 0c94 d23b
000000b0: 11c5 00bd d664 733d 26c6 d13c 3a42 053d
000000c0: b5dc 293d 527e 7a3c fc8e 6b3d 4815 0a3c
000000d0: 576e 3fbc 69a2 1abd c567 68bd ae84 f13c
000000e0: 5be2 69bc 5a42 e4bc e553 fbbc cad8 473b
000000f0: 9d6b 72bc 6e14 66bd a065 0ebd c50a 203c

12 f4 [64]
0.18914329 0.8383935 1.0572598 0.5333773 0.75032276 0.86951107 0.80349225 0.6457909
0.43670946 0.7663411 0.66888404 0.32843345 0.48950773 0.55384517 0.6766749 0.9352728
0.41567415 0.22392209 0.5677774 0.6778978 0.71051955 0.46757632 0.7610498 0.91019714
0.20771965 0.327691 0.57113874 0.9010364 0.2511299 0.384399 0.6235512 0.17421053
0.33729696 0.7330422 0.84309274 0.27821243 1.110534 0.505618 0.9519986 0.9035774
0.82028496 0.6682946 0.70586246 0.6338501 0.39898723 0.6574555 0.5984297 0.70095783
0.576515 0.49549833 0.30134776 0.8224861 0.27584398 0.627142 0.4278862 0.38011172
0.6790731 1.0343611 0.17621191 0.36951986 0.15752605 0.8289973 0.9532672 0.7974366
00000000: c7ae 413e f5a0 563f 4a54 873f 6a8b 083f
00000010: 2715 403f 4798 5e3f abb1 4d3f 8d52 253f
00000020: 6298 df3e ee2e 443f fc3b 2b3f 6e28 a83e
00000030: c2a0 fa3e ccc8 0d3f 913a 2d3f 0a6e 6f3f
00000040: 3ed3 d43e d54b 653e dc59 113f b68a 2d3f
00000050: 9ce4 353f 2a66 ef3e 29d4 423f ae02 693f
00000060: 76b4 543e 1dc7 a73e 2636 123f 52aa 663f
00000070: 1994 803e f2cf c43e 0da1 1f3f 3f64 323e
00000080: 30b2 ac3e a7a8 3b3f edd4 573f dc71 8e3e
00000090: fa25 8e3f 2e70 013f 2eb6 733f d950 673f
000000a0: 32fe 513f 5b15 2b3f 67b3 343f 0044 223f
000000b0: 0e48 cc3e 014f 283f b032 193f f971 333f
000000c0: 7d96 133f f5b1 fd3e 414a 9a3e 738e 523f
000000d0: 6c3b 8d3e 618c 203f e613 db3e 019e c23e
000000e0: bcd7 2d3f f265 843f e570 343e b531 bd3e
000000f0: 824e 213e 2b39 543f 5209 743f ce24 4c3f

13 f4 [64]
-0.038993485 -0.16725531 -0.15459529 -0.2055073 -0.105075136 -0.10463274 -0.25806865 -0.12623721
-0.054485664 -0.053847138 -0.014026891 -0.015497891 -0.13406712 -0.015932666 -0.05947321 -0.08550686
-0.10463815 -0.020518064 -0.111216724 -0.12971517 -0.11900675 -0.02715886 -0.12445863 -0.16137171
-0.04290665 -0.094045065 -0.1932294 -0.11420037 -0.08425117 0.0027400171 -0.12941353 -0.041843742
-0.1136607 -0.15579535 -0.10041321 -0.10491643 -0.18346217 -0.12583786 -0.15785459 -0.10536647
-0.12183468 -0.088040635 -0.13764651 0.0069276365 -0.0873873 -0.07753806 -0.07071201 -0.120955795
-0.087492004 -0.08040596 -0.09836636 -0.06417105 -0.05486868 -0.16763532 -0.15007278 -0.10476198
-0.10540387 -0.17863339 -0.023374625 0.01389184 -0.054425266 -0.09806956 -0.12729959 -0.049547043
00000000: a2b7 1fbd fa44 2bbe 3a4e 1ebe 8170 52be
00000010: a231 d7bd b149 d6bd 9321 84be 5444 01be
00000020: 5c2c 5fbd d18e 5cbd 0cd1 65bc deea 7dbc
00000030: e448 09be 3985 82bc 2e9a 73bd 381e afbd
00000040: 874c d6bd 8015 a8bc 98c5 e3bd 0ed4 04be
00000050: d0b9 f3bd 427c debc 2be4 febd a03e 25be
00000060: e2be 2fbd b39a c0bd eedd 45be e2e1 e9bd
00000070: e18b acbd dc91 333b fb84 04be 5864 2bbd
00000080: f1c6 e8bd d188 1fbe 71a5 cdbd 6dde d6bd
00000090: 82dd 3bbe a4db 00be a2a4 21be 60ca d7bd
000000a0: 7684 f9bd a64e b4bd 35f3 0cbe 3a01 e33b
000000b0: 1df8 b2bd 46cc 9ebd 75d1 90bd acb7 f7bd
000000c0: 022f b3bd e1ab a4bd 4d74 c9bd 1d6c 83bd
000000d0: fbbd 60bd 98a8 2bbe aeac 19be 738d d6bd
000000e0: fcdd d7bd aceb 36be 247c bfbc 9a9a 633c
000000f0: 07ed 5ebd b2d8 c8bd d35a 02be d7f1 4abd

14 f4 [64]
-0.11064324 0.16711876 0.34372237 -0.11274384 0.2867415 -0.91346514 0.1030222 -0.5161384
0.070235685 -1.0352241 -0.5622878 0.16946475 -0.41588175 0.3946974 0.23689276 -1.1374708
-0.025365166 -0.33353922 0.04130174 -0.34070098 -0.034975972 -0.40412843 -0.1127071 0.08094736
-0.10932383 -0.60087574 0.6585077 -0.18226893 -0.26899785 0.15844887 0.35594898 -0.4502447
-0.9415987 -0.40554044 -0.110622704 0.2172105 -0.29389638 -0.6077113 -0.14448027 -0.5392976
0.40005308 -0.9413712 -0.20550957 -0.31696686 0.058157958 -0.4091093 -0.10276663 0.5094504
-0.07652116 -0.9761235 -0.009751545 0.13086249 -0.62439007 0.7170339 -0.27461115 -0.47914523
-0.26748437 -0.52442384 0.217256 -0.8717007 0.16431879 0.43360406 0.12945391 -1.2800618
00000000: ec98 e2bd 2e21 2b3e 61fc af3e 3ee6 e6bd
00000010: c8cf 923e dad8 69bf 4efd d23d a521 04bf
00000020: bad7 8f3d 3982 84bf 18f2 0fbf 2b88 2d3e
00000030: 74ee d4be c715 ca3e 0494 723e a598 91bf
00000040: 9cca cfbc a7c5 aabe 032c 293d 5c70 aebe
00000050: f742 0fbd ece9 cebe fbd2 e6bd bbc7 a53d
00000060: 2ce5 dfbd fed2 19bf f693 283f b5a4 3abe
00000070: 16ba 89be 6c40 223e f23e b63e 7986 e6be
00000080: 9d0c 71bf ffa2 cfbe 288e e2bd 6e6c 5e3e
00000090: 9679 96be f892 1bbf a3f2 13be 680f 0abf
000000a0: c2d3 cc3e b4fd 70bf 1a71 52be 7b49 a2be
000000b0: 0a37 6e3d c676 d1be 5077 d2bd 576b 023f
000000c0: 20b7 9cbd 3be3 79bf f2c4 1fbc d100 063e
000000d0: 07d8 1fbf 898f 373f d599 8cbe 8652 f5be
000000e0: b6f3 88be a440 06bf 5b78 5e3e c727 5fbf
000000f0: 2f43 283e 5a01 de3e 918f 043e 11d9 a3bf

15 f4 [64]
2.1262734 1.9135864 2.3890157 1.7018591 1.8416646 5.6515455 2.010024 2.3150077
2.7343369 3.1964552 2.660424 2.1932538 2.9661376 2.4678018 2.2681262 2.5091732
1.9387712 2.6833153 1.8892359 2.235058 3.2683163 3.3860326 2.7567694 2.091701
4.9744754 3.5318406 3.044497 2.4825108 2.0043292 3.3004162 3.340069 3.1149073
4.4944515 2.6009023 2.9357667 3.5894847 1.6462299 2.8368511 2.4010623 2.8009868
2.394472 3.9991174 2.5068934 3.0787115 1.5612398 2.0242996 3.0973806 2.374397
2.950929 2.7570372 2.6177537 4.1002 2.6344192 1.7626817 2.2114367 2.4638536
2.3025239 3.5880618 4.6486087 3.019634 2.3678598 4.305499 2.7595346 3.2986054
00000000: dd14 0840 66f0 f43f a2e5 1840 85d6 d93f
00000010: aabb eb3f 76d9 b440 3ca4 0040 1629 1440
00000020: 60ff 2e40 b992 4c40 6344 2a40 455e 0c40
00000030: 33d5 3d40 77f0 1d40 fb28 1140 4b96 2040
00000040: a829 f83f 70bb 2b40 7bd2 f13f 310b 0f40
00000050: 182c 5140 c2b4 5840 e96e 3040 6ede 0540
00000060: e72e 9f40 ad09 6240 0ad9 4240 75e1 1e40
00000070: ee46 0040 053a 5340 b1c3 5540 a45a 4740
00000080: 8cd2 8f40 2f75 2640 9ae3 3b40 1eba 6540
00000090: a9b7 d23f f88e 3540 01ab 1940 5e43 3340
000000a0: 073f 1940 8af1 7f40 f170 2040 9c09 4540
000000b0: b5d6 c73f 208e 0140 7c3b 4640 1ff6 1740
000000c0: 05dc 3c40 4c73 3040 4789 2740 d734 8340
000000d0: 539a 2840 8e9f e13f 2e88 0d40 c7af 1d40
000000e0: 8d5c 1340 cea2 6540 67c1 9440 af41 4140
000000f0: 048b 1740 a6c6 8940 379c 3040 5a1c 5340

17 f4 [10, 5184]
-0.0042082793 -0.024673698 -0.010567088 -0.00954548 -0.017966015 -0.014635349 -0.012147352 -0.012582401
-0.0026605807 -0.020078849 -0.021777123 -0.019943519 -0.009943482 -0.009728633 -0.0051254197 -0.008066455
-0.0044866987 -0.0041447678 -0.018274367 -0.012320365 -0.009393671 -0.018033039 -0.02198709 -0.020968247
-0.0056729554 -0.0057860855 -0.00025961647 -0.016724778 -0.017740646 0.0013075349 -0.015039893 -0.004747837
1.5209964e-05 -0.021820731 -0.015336543 -0.0017501084 -0.013771522 -0.021589052 0.00034293593 -0.016136779
-0.0076859826 -0.018003028 -0.00919802 0.0025512099 -0.008820552 -0.021351222 -0.02314389 -0.015239662
-0.019779764 -0.021396015 -0.024061425 -0.017803855 -0.006054644 -0.009843635 -0.0047285715 -0.013443257
-0.020038864 -0.009742855 -0.016988762 -0.005598349 -0.0087771155 -0.008685204 -0.016129658 -0.0026885897
-0.018771011 -0.022302149 -0.0016792222 -0.022219414 -0.017327532 -0.0173758 -0.019253565 -0.020646254
-0.0072290553 -0.005539087 -0.015207965 -0.0146718845 -0.012387871 -0.020193206 -0.020488078 -0.012511969
-0.014837112 -0.004773852 -0.02040802 -0.020532707 -0.002895083 0.00231487 -0.042011663 -0.0031845951
-0.041533645 -0.030206978 -0.004454694 -0.010667456 -0.018644307 0.000700309 -0.016429147 0.005313834
-0.0021622055 -0.0007943337 -0.002801693 -0.01743396 -0.018537326 -0.004700051 0.0010785045 -0.013001961
-0.020571582 -0.0024657021 -0.00023307206 -0.01234285 -0.0057254354 -0.00010330681 -0.0021814439 0.0010941963
-0.018106528 -0.011180791 -0.015768807 -0.0074218586 0.0040508527 -0.024098568 -0.00047439898 -0.0021338614
-0.018984873 -0.010159885 -0.008983798 -0.004725436 -0.0054928786 -0.017535085 -0.019892372 0.0009355759
-0.01486718 0.0023898254 -0.0139915915 -0.012312742 -0.0052542854 -0.01216724 -0.018360876 -0.024044832
-0.012003567 -0.0096739605 0.0068590986 -0.006525648 0.00447926 0.0053170356 -0.009254309 -0.017502612
-0.022235125 -0.01685403 -0.0030380818 -0.018954042 -0.013373713 0.0057493486 -0.0069857473 -0.00050979806
-0.00013768724 -0.014552051 -0.023645686 -0.0052658087 -0.0097443005 -0.00090589066 0.0031351591 -0.017643914
-0.0085660815 -0.016713873 -0.00066177506 -0.0060859183 0.00025144021 -0.006374077 -0.013345082 -0.003535256
-0.0029534153 -0.0026780954 -0.020580392 0.002805449 -0.005958375 -0.0076709273 -0.010430992 -0.011791126
-0.000149302 -0.0016346041 -0.013723885 -0.019137729 0.0039043848 -0.008345267 0.0035035766 -0.007001476
-0.009349482 -0.017907761 -0.0020938972 0.0066669756 0.0019882212 -0.015661076 -0.011852355 0.0034553474
0.0025786879 -0.016644694 -0.018168874 0.00574004 -0.0031054579 -0.015984543 0.003727476 -0.004095138
-0.008244322 -0.019432092 -0.01754102 -0.015251957 -0.015679214 -0.020552292 0.0026111656 -0.0051148417
-0.019545794 -0.003060989 -0.0053362967 -0.0137856025 -0.020591766 0.0054663867 -0.008782649 -0.002933368
-0.010895148 -0.020648614 0.0034265707 -0.0131001845 -0.001185521 -0.018319404 -0.007068765 0.005330298
-0.0019080299 0.0036877617 -0.017443882 -0.017698523 -0.01835296 0.0015659812 0.0057860157 -0.018515721
-0.008398382 0.002028126 -0.014017935 0.000512345 -0.007640326 -0.008216144 0.0022119647 -0.006467137
-0.019680155 -0.009808282 -0.009134646 -0.00021989255 -0.0031307002 -0.012471863 0.0032230462 -0.012388877
-0.007035032 0.0029106364 -0.0076208804 -0.010054183 -0.005753436 -0.015353113 0.0012657398 -0.009777978
00000000: 9be5 89bb 7f20 cabc 9421 2dbc a564 1cbc
00000010: 772d 93bc 1ac9 6fbc b005 47bc 6a26 4ebc
00000020: 235d 2ebb 667c a4bc f065 b2bc 9760 a3bc
00000030: fce9 22bc d864 1fbc 23f3 a7bb 2a29 04bc
00000040: 2805 93bb d5d0 87bb 20b4 95bc 5bdb 49bc
00000050: e9e7 19bc 06ba 93bc 451e b4bc 9ac5 abbc
00000060: 33e4 b9bb 3499 bdbb 221d 88b9 6702 89bc
00000070: d554 91bc 9761 ab3a e269 76bc be93 9bbb
00000080: 4c2e 7f37 64c1 b2bc 2046 7bbc e563 e5ba
00000090: f3a1 61bc 86db b0bc 15cc b339 4731 84bc
000000a0: b2da fbbb 167b 93bc 4bb3 16bc 3332 273b
000000b0: 1484 10bc c2e8 aebc 4198 bdbc c6af 79bc
000000c0: 2c09 a2bc b246 afbc 771c c5bc 64d9 91bc
000000d0: 0966 c6bb 3347 21bc 22f2 9abb 1b41 5cbc
000000e0: 8b28 a4bc 7fa0 1fbc 042c 8bbc 5b72 b7bb
000000f0: e4cd 0fbc 634c 0ebc 5822 84bc 0d33 30bb
00000100: aac5 99bc ffb2 b6bc 5919 dcba 7d05 b6bc
00000110: 78f2 8dbc b257 8ebc a7b9 9dbc 5522 a9bc
00000120: b6e1 ecbb 3b81 b5bb d42a 79bc 5862 70bc
00000130: 7ff6 4abc 396c a5bc 9dd6 a7bc 00ff 4cbc
00000140: 5c17 73bc f96d 9cbb b82e a7bc 3534 a8bc
00000150: 6fbb 3dbb 13b5 173b 6c14 2cbd a4b4 50bb
00000160: 2f1f 2abd a074 f7bc aff8 91bb 8ec6 2ebc
00000170: f2bb 98bc f194 373a 6b96 86bc ac1f ae3b
00000180: cab3 0dbb d53a 50ba 9c9c 37bb aad1 8ebc
00000190: 97db 97bc e302 9abb 9b5c 8d3a 2d06 55bc
000001a0: bc85 a8bc 9e97 21bb ce64 74b9 aa39 4abc
000001b0: 6f9c bbbb 6ca6 d8b8 8ef6 0ebb 236b 8f3a
000001c0: 2454 94bc a32f 37bc 962d 81bc 1033 f3bb
000001d0: 04bd 843b 5c6a c5bc c1b8 f8b9 41d8 0bbb
000001e0: 2a86 9bbc a575 26bc c830 13bc d5d7 9abb
000001f0: 9bfd b3bb bda5 8fbc 54f5 a2bc 7041 753a
00000200: 7995 73bc 9e9e 1c3b fd3c 65bc 62bb 49bc
00000210: 242c acbb 1a59 47bc 8c69 96bc abf9 c4bc
00000220: 9caa 44bc 887f 1ebc 4ac2 e03b 1ad5 d5bb
00000230: c2c6 923b 873a ae3b 639f 17bc a361 8fbc
00000240: 7026 b6bc 7611 8abc 8e1a 47bb 8245 9bbc
00000250: 6b1d 5bbc 0865 bc3b b2e8 e4bb f8a3 05ba
00000260: 2360 10b9 ba6b 6ebc 99b4 c1bc ce8c acbb
00000270: 8fa6 1fbc 4b79 6dba 3e77 4d3b f889 90bc
00000280: c058 0cbc 88eb 88bc f97a 2dba 626c c7bb
00000290: bcd3 8339 a2dd d0bb 55a5 5abc c1af 67bb
000002a0: 168e 41bb fc82 2fbb 3698 a8bc a0db 373b
000002b0: 793e c3bb 675c fbbb c0e6 2abc 912f 41bc
000002c0: f38d 1cb9 3640 d6ba 25da 60bc bac6 9cbc
000002d0: b5e0 7f3b 96ba 08bc 439c 653b a36c e5bb
000002e0: 922e 19bc 4cb3 92bc c439 09bb a576 da3b
000002f0: d14c 023b a84b 80bc 6130 42bc 1c73 623b
00000300: 34ff 283b 745a 88bc e4d6 94bc f216 bc3b
00000310: f084 4bbb 04f2 82bc ac48 743b 8230 86bb
00000320: 3113 07bc 0d30 9fbc 2fb2 8fbc 58e3 79bc
00000330: b271 80bc 485d a8bc 1720 2b3b 679a a7bb
00000340: 801e a0bc e09a 48bb 1adc aebb 02dd 61bc
00000350: 10b0 a8bc 601f b33b 1ae5 0fbc c03d 40bb
00000360: 9081 32bc 4827 a9bc 5190 603b 28a2 56bc
00000370: 7c63 9bba 9312 96bc 19a1 e7bb c8a9 ae3b
00000380: dc16 faba 60ae 713b 79e6 8ebc 7efc 90bc
00000390: f258 96bc 9c41 cd3a 9e98 bd3b 48ae 97bc
000003a0: 5e99 09bc 4fea 043b 7bab 65bc e44e 063a
000003b0: b35b fabb 019d 06bc 9cf6 103b 47ea d3bb
000003c0: 4738 a1bc ebb2 20bc 7ba9 15bc f592 66b9
000003d0: 6f2c 4dbb c956 4cbc be39 533b b7fa 4abc
000003e0: 2086 e6bb 60c0 3e3b 94b8 f9bb 4dba 24bc
000003f0: 5287 bcbb a08b 7bbc 2ee7 a53a d033 20bc

18 f4 [10]
-0.0011856467 -0.04168448 -0.015164993 0.017184509 0.07765974 -0.028254118 0.05003578 -0.050627258
0.035082076 -0.0059248116
00000000: b467 9bba 58bd 2abd 9776 78bc 87c6 8c3c
00000010: 120c 9f3d 2e75 e7bc 51f2 4c3d 875e 4fbd
00000020: 39b2 0f3d ec24 c2bb
