tools/pot/tests/data/models/first_convs_test_nets/1_input_model.onnx (onnx, 10944 bytes, 6 tensors)

conv1.weight f4 [3, 1, 3, 3]
0	0x3e56b43b	0.2096719
1	0xba8eec00	-0.0010904074
2	0xbe9ddf16	-0.30834264
3	0x3e873fbe	0.2641582
4	0x3e9717e7	0.29510424
5	0x3d95ff7b	0.0732412
6	0x3dfebb6b	0.12438091
7	0x3e80d9cf	0.25166175
8	0xbe2baccb	-0.16765134
9	0x3d110c16	0.035411917
10	0xbdeddc70	-0.11614311
11	0x3dc4f7e6	0.096175954
12	0xbcaf81eb	-0.021424254
13	0xbdf765fb	-0.12079998
14	0x3e7fa660	0.24965811
15	0x3cd0912b	0.025459846
16	0x3c75ddab	0.015006463
17	0x3d7c9916	0.06166943
18	0xbe13910b	-0.14410798
19	0x3e491698	0.19637525
20	0xbe2b4398	-0.16725004
21	0x3e144d5b	0.14482634
22	0xbe9afccc	-0.30270994
23	0xbddfc9bb	-0.10927149
24	0xbe9114ec	-0.28336275
25	0xbe9bb372	-0.30410343
26	0xbdbe496b	-0.09291347

conv1.bias f4 [3]
0	0xbe6232d8	-0.22089708
1	0xbdfef3cb	-0.124488436
2	0x3b4982ab	0.003074805

conv1_1.weight f4 [32, 3, 3, 3]
0	0x3da8ea46	0.08247809
1	0x3e11276d	0.14175196
2	0x3def0db3	0.11672535
3	0x3e13d69c	0.14437336
4	0x3dec0063	0.11523511
5	0xbdb8d240	-0.09024477
6	0xbd9a380b	-0.075302206
7	0x3d804027	0.06262236
8	0x3e299687	0.16561328
9	0xbe100fc5	-0.14068516
10	0xbe06d62b	-0.13167636
11	0x3dd75748	0.105146945
12	0xbe3371a0	-0.17523813
13	0xbd747234	-0.059679225
14	0xbde8651b	-0.11347409
15	0xbd958b7c	-0.07301995
16	0x3e313848	0.17306626
17	0xbe3329ce	-0.17496416
18	0x3e0e4ad5	0.13895734
19	0x3cdb269e	0.026751813
20	0x3c179746	0.009252375
21	0xbd088758	-0.0333322
22	0x3db225c1	0.08698607
23	0xbd86d458	-0.0658347
24	0x3d98b432	0.074562445
25	0x3d93ae88	0.072110236
26	0x3e34b74d	0.17648049
27	0x3e2f482d	0.17117377
28	0x3d82f6a2	0.06394698
29	0x3e2785a5	0.16359575
30	0x3e2e2b86	0.1700879
31	0xbe0e9671	-0.13924576
32	0x3dbf100b	0.09329232
33	0xbd2cc31a	-0.04217825
34	0x3e11fc5c	0.14256424
35	0x3e222e65	0.1583801
36	0x3e25e8d2	0.16202095
37	0x3e3621eb	0.17786376
38	0xbe322171	-0.1739557
39	0x3db7e8c0	0.089799404
40	0x3dc9ae9e	0.09847759
41	0x3d98f0af	0.07467782
42	0x3d9eecf9	0.07760043
43	0xbe21d7f0	-0.1580503
44	0x3c30a5d4	0.010781724
45	0x3e07bc33	0.13255386
46	0xbe07b73d	-0.13253494
47	0xbde75f7c	-0.11297509
48	0xbe0222f3	-0.12708645
49	0x3dfdb558	0.12388104
50	0xbe2e4894	-0.17019874
51	0xbbe67d95	-0.0070340135
52	0xbda36f72	-0.07980241
53	0xbdb4c620	-0.08826852
54	0xbc4fda3d	-0.012686309
55	0xbe254d84	-0.16142851
56	0xbc432668	-0.011911012
57	0xbd25ba71	-0.040461008
58	0xbca0e0cd	-0.019638443
59	0xbde78656	-0.113049194
60	0xbe35f485	-0.17769058
61	0x3c5d5db8	0.013511114
62	0xba67b433	-0.00088388025
63	0x3e341497	0.1758598
64	0xbcbf4fc2	-0.023353461
65	0xbcc9a148	-0.024613038
66	0x3e39d85b	0.1814894
67	0xbd751464	-0.0598339
68	0xbd9db6b8	-0.077008665
69	0xbe20a538	-0.15688026
70	0xbe012c4d	-0.12614556
71	0xbd26ddcf	-0.040738877
72	0x3e259012	0.1616824
73	0xbe14b124	-0.14520699
74	0x3e17dcfd	0.14830394
75	0x3dd2d27d	0.10294054
76	0xbdbd53ee	-0.09244524
77	0xbe204c06	-0.15654
78	0x3e0042d1	0.12525488
79	0x3e1765c1	0.1478491
80	0x3d4155ee	0.04720109
81	0x3dbd85c0	0.092540264
82	0x3db1c995	0.08681027
83	0x3e2ec9b3	0.1706913
84	0x3e40f28b	0.18842523
85	0x3e129ec5	0.14318378
86	0x3deeb4bd	0.11655567
87	0x3df0fbd6	0.11766784
88	0xbb0fef44	-0.0021962682
89	0xbc97f64b	-0.018550059
90	0xbd9709ad	-0.073748924
91	0x3db3962c	0.087688774
92	0xbda6b142	-0.08139278
93	0xbe42a669	-0.19008793
94	0xbe05a5d8	-0.13051546
95	0x3e39c0de	0.18139979
96	0x3e04880d	0.12942524
97	0xbe2759d8	-0.16342866
98	0x3e2c8cbd	0.16850562
99	0xbe23cfed	-0.15997286
100	0xbd0a2d9a	-0.033734895
101	0x3d299f3c	0.041411623
102	0xbe2ed15f	-0.17072056
103	0xbdd7dc53	-0.105400704
104	0xbde884c1	-0.11353446
105	0xbd0ec54e	-0.034856133
106	0x3da97cf5	0.08275787
107	0xbd3e7765	-0.046500582
108	0xbe0043d1	-0.1252587
109	0xbd26bd81	-0.04070807
110	0xbe247ce7	-0.16063271
111	0xbe06e97c	-0.13175005
112	0xbcfce73e	-0.030871984
113	0xbd03fbe3	-0.03222264
114	0xbe2ea782	-0.17056087
115	0x3e0691af	0.13141511
116	0xbd8310c2	-0.06399681
117	0x3da2c943	0.07948544
118	0x3e3d91f9	0.18512715
119	0xbe16a376	-0.14710793
120	0x3e370de9	0.178764
121	0xbd58ddc3	-0.052945863
122	0x3d2cc108	0.042176276
123	0xbd3e21af	-0.046418842
124	0x3e152a38	0.14566886
125	0xbe1efc55	-0.15525945
126	0x3d9427fb	0.07234188
127	0xbe096974	-0.13419133
128	0x3db4c52d	0.08826671
129	0x3de0360f	0.10947811
130	0xbd0f2036	-0.034942828
131	0x3e3d11d4	0.18463832
132	0xbdcecb1c	-0.10097334
133	0x3c5906ff	0.013246297
134	0x3d2aebca	0.041728772
135	0xbe0d36ff	-0.1379051
136	0x3df7ac8c	0.120934576
137	0x3e334854	0.1750806
138	0x3d672bba	0.056438185
139	0x3e3d82e6	0.18506965
140	0x3c325207	0.010883815
141	0x3e42c8f8	0.19021976
142	0x3d422b6e	0.0474047
143	0xbe2311e0	-0.15924788
144	0x3d67eb2a	0.056620754
145	0xbc3f50b8	-0.01167696
146	0x3d130b99	0.035899732
147	0xbd00ac99	-0.031414602
148	0x3dac9eb1	0.084287055
149	0x3d43f635	0.047842223
150	0x3e1ce392	0.15321186
151	0xbe158dd1	-0.1460488
152	0x3e28b04f	0.16473506
153	0xbe1ece94	-0.15508491
154	0xbdfd473d	-0.12367103
155	0x3d64791e	0.05577957
156	0xbe3c41d2	-0.18384483
157	0x3c0a9471	0.008458243
158	0x3e310281	0.17286111
159	0xbd0bca18	-0.03412828
160	0xbb0740da	-0.002063802
161	0xbdbf0280	-0.09326649
162	0xbe148bde	-0.1450648
163	0x3ccc03af	0.0249041
164	0x3dc1dbd7	0.09465759
165	0x3d751a74	0.05983968
166	0xbe332ee8	-0.17498362
167	0xbc44091d	-0.011965063
168	0x3dca66d7	0.098828964
169	0x3e11481e	0.14187667
170	0x3e0736db	0.1320452
171	0x3dba2693	0.09089389
172	0xbd83db06	-0.0643826
173	0xbd0b802b	-0.034057777
174	0xbd60e154	-0.05490239
175	0x3cf47433	0.029840564
176	0x3e186726	0.14883098
177	0x3db213cb	0.086951815
178	0xbbdebfbb	-0.0067977584
179	0x3d15aa4a	0.036539353
180	0x3e3f3717	0.18673359
181	0xbe3bdb0c	-0.18345279
182	0xbe196e37	-0.1498345
183	0x3d1fa8d7	0.038979378
184	0x3de65733	0.11247101
185	0xbd30c576	-0.043157063
186	0xbe38fd6a	-0.1806542
187	0xbd374646	-0.044744752
188	0x3d27021c	0.040773496
189	0xbe33c2e8	-0.1755482
190	0x3cb0ff8e	0.021606233
191	0xbdd93759	-0.1060626
192	0xbdfbf667	-0.12302857
193	0x3db7f7eb	0.089828335
194	0x3d46fded	0.048582006
195	0x3e25caea	0.16190687
196	0x3da257c1	0.07926894
197	0x3d9c27fc	0.07624814
198	0xbc3faafb	-0.01169848
199	0xbd6b4ba1	-0.057445172
200	0xbe01a4a9	-0.12660469
201	0xbe1a167c	-0.1504764
202	0x3ad07ee1	0.0015906953
203	0xbe353506	-0.17696008
204	0xbc876521	-0.016527714
205	0xbe1e0614	-0.15432006
206	0x3c732d78	0.014842384
207	0x3d1f68d9	0.03891835
208	0x3d92a1e5	0.07159785
209	0xbd89e5b0	-0.067332625
210	0x3d87aae1	0.066243894
211	0xbe14e107	-0.14538966
212	0x3e350390	0.1767714
213	0x3e3e006e	0.18554851
214	0xbd2e4ad5	-0.042551834
215	0x3e036114	0.12830001
216	0xbd881ad6	-0.066457435
217	0xbdd47c02	-0.10375215
218	0xbd7f3539	-0.062306616
219	0x3e2f2a6c	0.17106026
220	0xbe22f996	-0.15915522
221	0x3d86091b	0.065447055
222	0x3df8a7da	0.1214139
223	0x3e290ef5	0.16509612
224	0x3dc0e811	0.09419263
225	0xbd243e35	-0.040098388
226	0xbe11648d	-0.14198513
227	0x3df60824	0.120132715
228	0xbdd0215f	-0.10162615
229	0x3bb83095	0.005621026
230	0xbddd73a6	-0.10813074
231	0x3dca92fc	0.09891316
232	0xbe32d104	-0.17462546
233	0xbcc31047	-0.023811473
234	0xbda6095b	-0.08107253
235	0xbd8cee7c	-0.06881425
236	0x3e0fa5a5	0.14028032
237	0x3ade9a03	0.0016983155
238	0x3ca7ad77	0.020468457
239	0xbe204c89	-0.15654196
240	0x3e0eb48f	0.13936065
241	0xbe354bf0	-0.17704749
242	0x3cb40927	0.02197702
243	0xbc47cf81	-0.012195469
244	0x3e12467d	0.14284702
245	0x3dc90687	0.09815698
246	0xbe0808bc	-0.13284582
247	0xbdecc73f	-0.11561441
248	0x3e435ca9	0.19078316
249	0xbd38c5c1	-0.045110468
250	0x3cb4da02	0.02207661
251	0xbd54acd4	-0.051922634
252	0xbe281b0a	-0.16416565
253	0xbd74b17f	-0.059739586
254	0x3ddd5eca	0.10809095
255	0xbe3451a6	-0.17609271

conv1_1.bias f4 [32]
0	0x3dc424a9	0.09577305
1	0x3d804b8b	0.06264409
2	0x3e3cb08a	0.1842672
3	0x3de7146d	0.11283193
4	0x3c7341ad	0.014847201
5	0xbe109aa1	-0.14121486
6	0xbbb89663	-0.005633162
7	0x3e009b33	0.12559204
8	0xbde189d4	-0.11012617
9	0xbde703f3	-0.1128005
10	0x3e435bed	0.19078036
11	0x3d480bd6	0.048839413
12	0x3d6975e8	0.05699721
13	0xbb86e383	-0.004116477
14	0x3a947a6f	0.0011327992
15	0xbe2fcdc4	-0.17168337
16	0xbca055ce	-0.019572165
17	0xbd4e0fde	-0.0503081
18	0x3e2d2f2b	0.16912524
19	0xbd4fbbf3	-0.05071635
20	0xbc2b7fd5	-0.010467489
21	0xbd652c25	-0.055950303
22	0x3d37a191	0.044831816
23	0xbd3f9ce8	-0.046780497
24	0xbdbdca0f	-0.09267055
25	0x3df80304	0.1210995
26	0xbdd50657	-0.104016
27	0x3d4ffcf9	0.050778363
28	0xbdd7b706	-0.10532956
29	0xbe077a6c	-0.13230294
30	0xbe2128bb	-0.15738194
31	0x3e3d4a2a	0.18485323

fc1.weight f4 [36, 44]
0	0xbc98fac8	-0.01867427
1	0x3df97c32	0.121818915
2	0x3db3deb8	0.087827146
3	0x3cec9513	0.028879678
4	0x3c7d2c6d	0.015452486
5	0xbbbc9179	-0.0057546464
6	0x3e102bc1	0.14079191
7	0x3df51119	0.11966152
8	0x3d1e91de	0.03871333
9	0x3d445b08	0.047938377
10	0x3d131214	0.035905913
11	0xbdd45095	-0.10366932
12	0x3df6ee50	0.12057173
13	0x3d8a3cbc	0.067498654
14	0x3e0960d3	0.13415842
15	0x3dcb8845	0.09938101
16	0x3d28e403	0.041233074
17	0x3bdbab55	0.006703774
18	0x3d89c407	0.067268424
19	0x3e0a49de	0.1350474
20	0xbe0f22aa	-0.13978067
21	0xbd59ee66	-0.05320587
22	0xbcbed8bf	-0.023296712
23	0xbdfb6fae	-0.122771606
24	0xbdbfc3f0	-0.09363544
25	0x3d0186d3	0.03162272
26	0xbda86413	-0.08222213
27	0x3d6753eb	0.056476515
28	0x3d58c50d	0.052922297
29	0x3d8e2ccf	0.0694214
30	0xbe0f19d2	-0.13974693
31	0xbdbc11eb	-0.09183105
32	0x3dd16d14	0.10225883
33	0x3d8a6751	0.06757987
34	0x3d94038e	0.072272405
35	0x3ddd100d	0.10794077
36	0x3de29ad7	0.110646896
37	0xbd819c88	-0.06328684
38	0x3e0688a1	0.13138057
39	0xbe0a0fb1	-0.13482548
40	0x3c24945e	0.010045139
41	0xbd246386	-0.040133975
42	0xbcec3207	-0.028832449
43	0xbcb06365	-0.02153177
44	0x3dd0e6e1	0.10200287
45	0x3d88b7eb	0.066757046
46	0xbd9f9ebb	-0.07793947
47	0x3dcc8189	0.09985644
48	0xbce3fb8d	-0.02782991
49	0x3d8b1d81	0.06792737
50	0x3de5bfa4	0.11218193
51	0x3b86e682	0.004116834
52	0xbe1676ec	-0.14693803
53	0xbd05c656	-0.03265985
54	0x3db659c9	0.08903844
55	0xbe11dd9f	-0.14244698
56	0xbc49934a	-0.012303183
57	0x3d064347	0.032779004
58	0xbe0b6ad7	-0.13614975
59	0x3d4f50c8	0.05061415
60	0xbd67bb04	-0.056574836
61	0xbdb536b5	-0.08848325
62	0xbcb16cf3	-0.021658396
63	0xbd8719ef	-0.06596743
64	0x3e0ffd6e	0.1406152
65	0x3e0e8bda	0.13920537
66	0x3d489deb	0.048978727
67	0x3e12fff1	0.14355446
68	0xbbc13304	-0.005895974
69	0x3c5e4c62	0.013568016
70	0xbd75ddcb	-0.06002597
71	0xbd9d59ed	-0.076831676
72	0x3e0e8371	0.13917328
73	0xbdd41d58	-0.103571594
74	0xbe0267e1	-0.12734939
75	0xbe07aba5	-0.13249071
76	0x3cf60e3e	0.030036088
77	0xbcf394b1	-0.029733988
78	0x3c8732c0	0.016503692
79	0x3d031cf6	0.03201004
80	0x3a7ebae0	0.00097171776
81	0x3e121622	0.14266255
82	0xbb6d9491	-0.0036251883
83	0x3d30a5bf	0.043126818
84	0x3cc5bf7e	0.024139162
85	0x3d8dd791	0.06925882
86	0x3bc58894	0.0060282443
87	0x3db5a837	0.08869975
88	0x3df60c96	0.12014119
89	0x3dc966db	0.09834071
90	0x3e1010db	0.1406893
91	0xbe0427aa	-0.12905756
92	0x3d873f98	0.066039264
93	0x3d870d6c	0.06594357
94	0xbc8a1848	-0.016857281
95	0x3df15691	0.11784089
96	0xbba0bf7a	-0.0049056383
97	0xbba8e35f	-0.005154058
98	0xbe1699e9	-0.1470715
99	0x3ce0b901	0.027431967
100	0xbdece6d7	-0.11567467
101	0x3dfc2dab	0.12313398
102	0xbd17adb5	-0.037030894
103	0x3dd52346	0.104071185
104	0xbd426a89	-0.04746488
105	0xbd041cfb	-0.0322542
106	0xbc5a56ed	-0.013326389
107	0xbd1f3132	-0.038865276
108	0xbdb95d6c	-0.09051022
109	0xbd1f55c1	-0.03890014
110	0xbc02643f	-0.007958471
111	0xbd157d1f	-0.036496278
112	0xbd944c57	-0.07241123
113	0x3e06d234	0.13166124
114	0xbd8a9508	-0.06766707
115	0x3db21443	0.08695271
116	0x3dd0db7d	0.10198114
117	0xbc52c8cf	-0.012865259
118	0xbddce491	-0.10785783
119	0x3d0363a0	0.03207743
120	0x3dc37fb3	0.09545841
121	0x3dda5827	0.10661345
122	0xbe0790d6	-0.13238844
123	0x3ccad9a3	0.02476198
124	0x3dd84633	0.105602644
125	0x3df64f49	0.12026841
126	0x3bb3f62e	0.0054919934
127	0x3c23216f	0.009956702
128	0x3cd58dbc	0.02606856
129	0xbc50ce7f	-0.012744545
130	0x3c2ddb99	0.010611438
131	0xbca462d8	-0.020066664
132	0x3da712e4	0.081579
133	0x3e198355	0.14991505
134	0xbdc0406c	-0.093872875
135	0x3d4c849e	0.04993116
136	0x3cf8c5de	0.030367788
137	0xbd9f79a0	-0.0778687
138	0xbd74cb31	-0.05976409
139	0xbe0ed24d	-0.13947411
140	0x3d913b12	0.07091345
141	0x3c1360cb	0.008995245
142	0x3ddbc450	0.10730803
143	0xbda13e58	-0.07873219
144	0xbd1a3ab4	-0.03765364
145	0xbd9196a1	-0.07108808
146	0x3d91f9fc	0.07127759
147	0xbd7b8767	-0.061408427
148	0xbe0868e0	-0.13321257
149	0x3d624c5f	0.055248614
150	0x3dbc7dc8	0.09203678
151	0x3e087f56	0.13329825
152	0x3c8ed3fb	0.017435065
153	0x3e02a25f	0.12757252
154	0xbb76cb4a	-0.003765779
155	0xbbe17a3d	-0.006881027
156	0xbd853870	-0.06504905
157	0x3caaf148	0.020867005
158	0x3e0acafd	0.13553996
159	0x3dd6d4a4	0.10489777
160	0xbd291072	-0.04127545
161	0x3d83be34	0.06432763
162	0x3a79e579	0.000953279
163	0x3cc9a27b	0.02461361
164	0xbd30e692	-0.04318864
165	0xbd8c029b	-0.068364345
166	0xbdd6e335	-0.10492555
167	0x3c89f835	0.016841987
168	0xbd8eeac6	-0.06978373
169	0xbdc2fa1c	-0.09520361
170	0x3e0d2f19	0.13787498
171	0x3e0cae3f	0.13738345
172	0xbda0113d	-0.07815788
173	0xbe048e01	-0.12944795
174	0xbdf9812e	-0.12182842
175	0xbd29a413	-0.04141624
176	0xbdc3561c	-0.095379084
177	0x3d99a360	0.075018644
178	0x3d377299	0.044787023
179	0xbd7f6dea	-0.06236068
180	0xbd13644c	-0.035984322
181	0xbdfe1b3c	-0.12407538
182	0x3cda74a0	0.02666694
183	0xbdb9faee	-0.09081064
184	0xbdc24d06	-0.09487347
185	0x3de6fff5	0.11279289
186	0x3dbe502f	0.092926376
187	0xbd01ad49	-0.0316594
188	0xbcac69d5	-0.021046558
189	0xbd1f807a	-0.038940884
190	0x3c31904e	0.010837628
191	0xbdacdf9e	-0.08441089
192	0x3e1a0562	0.15041116
193	0x3da0db6c	0.078543514
194	0xbdbab7de	-0.09117101
195	0xbe059ed3	-0.13048868
196	0xbe0de73d	-0.13857742
197	0x3d842c93	0.06453814
198	0x3da85934	0.08220139
199	0x3dee88c8	0.11647183
200	0x3d456e76	0.048201047
201	0x3dc0b58d	0.09409628
202	0x3d8781c4	0.06616548
203	0xbdae8fbe	-0.085235104
204	0x3df46a74	0.11934367
205	0xbd3e938d	-0.046527434
206	0x384c8005	4.8756618e-05
207	0x3c5a8e8e	0.013339652
208	0xbcd5ddc0	-0.026106715
209	0xbe0fb945	-0.14035518
210	0x3c78b046	0.015178746
211	0xbd8b7413	-0.06809249
212	0xbdbb5d16	-0.09148614
213	0x3de64906	0.11244397
214	0x3dfd1752	0.123579636
215	0x3c230a84	0.009951238
216	0x3e11846e	0.14210674
217	0x3da88565	0.08228568
218	0x3d38e2c8	0.04513815
219	0xbe00e822	-0.12588552
220	0x3d9783a5	0.07398156
221	0xbb8f1954	-0.004367033
222	0xbe1511fb	-0.1455764
223	0xbe1305c7	-0.14357673
224	0xbcb4e5ce	-0.022082236
225	0x3dbfffc7	0.093749575
226	0x3e1059bb	0.1409673
227	0x3e060a93	0.13089971
228	0x3b5612b4	0.0032664957
229	0x3dcf3b4c	0.10118732
230	0xbcd52509	-0.026018636
231	0xbcd705f2	-0.026247952
232	0xbdc6d991	-0.09709466
233	0xbe01aef1	-0.12664391
234	0xbdf4ebc6	-0.11959033
235	0xbcd6229b	-0.026139548
236	0xbb66bbe2	-0.0035207202
237	0x3b8e388d	0.0043402375
238	0xbc3bf3b5	-0.0114716785
239	0x3d8a44d4	0.06751409
240	0xbdd1e268	-0.10248262
241	0x3d38d4aa	0.045124687
242	0xbdaa81be	-0.083255276
243	0xbdb0f7ac	-0.0864099
244	0xbd1ae106	-0.037812255
245	0xbdb9f880	-0.09080601
246	0x3d982df8	0.07430643
247	0xbd830a3f	-0.06398439
248	0xbe0bfdb6	-0.13671002
249	0x3d22fff7	0.03979489
250	0xbdd36388	-0.103217185
251	0xbd2b94bd	-0.041889895
252	0xbdf424ac	-0.11921057
253	0xbdb8e0ae	-0.09027229
254	0x3e0acc86	0.13554582
255	0xbca58317	-0.02020411

fc1.bias f4 [36]
0	0xbc70aba8	-0.014689364
1	0x3cff80be	0.031189319
2	0xbcbb337f	-0.022851704
3	0xbd46b7dd	-0.04851519
4	0x3dfdd809	0.12394721
5	0xbd8c26f7	-0.068433695
6	0xbd874c31	-0.06606329
7	0x3c657f72	0.014007436
8	0xbd9db3e4	-0.07700327
9	0xbcbb25e4	-0.022845216
10	0xbdc901ed	-0.098148204
11	0x3dc17643	0.09446385
12	0x3d1d9f87	0.038482215
13	0x3d638d33	0.05555458
14	0x3da6bf9a	0.08142014
15	0xbd2dac64	-0.042400733
16	0xbd0f6afb	-0.035014134
17	0xbdbc1844	-0.09184316
18	0x3de28e8b	0.11062344
19	0xbd7b7d57	-0.06139883
20	0x3da7d76c	0.08195385
21	0xbc31c693	-0.010850566
22	0xbdd88e73	-0.10574045
23	0xbddec337	-0.10877078
24	0xbdef7ddb	-0.11693927
25	0xbdd90214	-0.105960995
26	0x3cf21977	0.029553158
27	0x39e38e68	0.00043402915
28	0xbd7afbac	-0.06127517
29	0xbd95cf50	-0.07314932
30	0xbdbb3278	-0.091404855
31	0xbdff02c6	-0.12451701
32	0xbd431397	-0.047626104
33	0xbc97c4a4	-0.018526383
34	0x3d0b4b81	0.034007553
35	0x3deaaf27	0.11459189
