tools/pot/tests/data/models/first_convs_test_nets/3_inputs_model.onnx (onnx, 16653 bytes, 12 tensors)

conv1.weight f4 [3, 1, 3, 3]
00000000: 28ea 91be d623 9dbc 1f8e 9e3e def6 5b3e
00000010: e0ae 7fbd 18b6 5e3e 808c 7abd 9bff c13d
00000020: 13aa 423e 769f 30bd eafe a4be 06b9 dbbd
00000030: 3071 f0bd 2606 aebd 7234 81be be84 903e
00000040: b610 ca3d a374 673e 06b0 033e cb5b 2dbd
00000050: b813 37be d68a 83be fb83 43be 00d4 acba
00000060: 66ca a33d 006a a1bc 3697 3b3d
-0.2849896 -0.019182127 0.30967805 0.21480891 -0.062422633 0.21749151 -0.061169147 0.09472581
0.1901019 -0.043120824 -0.32225734 -0.1072865 -0.11740339 -0.084972665 -0.25235325 0.28226274
0.098664686 0.22603087 0.12860116 -0.04232387 -0.17878616 -0.2569186 -0.19093315 -0.001318574
0.07997589 -0.019703865 0.045798503

conv1.bias f4 [3]
00000000: 908a debd 9059 74be 1a3b 98be
-0.108662724 -0.2386229 -0.2973259

conv2.weight f4 [32, 1, 3, 3]
00000000: 2b9b a33d c690 f03d 43e7 7d3e 37e9 84be
00000010: 467e 1f3e 8b5b 7e3e 0080 2dbe 2bcb 86bc
00000020: e0e4 4abd 7bd3 da3d ca15 a43e b6c4 59bd
00000030: eb97 36be 8a77 83be 56b3 22be fb69 98bd
00000040: 160b 233d 3be9 9b3e 063e 223e ef3e 85be
00000050: 4044 febc 0b63 433d 7cc2 87be 5635 d6bc
00000060: bcc1 89be d6ce a1bc 5820 1f3e 8630 4a3e
00000070: 105a f83d 2633 3abe a0e9 79bd 23fb 4c3e
00000080: 16e4 013e aee8 193e db55 113e 3652 77bd
00000090: abce 163b 6bb7 09bd 024e 843e 534e 013e
000000a0: 56ce 82be c612 99bd e03f 373d 6624 883d
000000b0: 56ed d13a aecd 75be f642 733e 46a4 b2bd
000000c0: 043c aabe 0439 863e c006 a3bc bb9a 6abe
000000d0: f068 e1bd b647 b1bd 1ef2 9fbe 90db 22be
000000e0: 8f9a 96be 0c37 aabe 6092 313e 202c 27bd
000000f0: be86 5c3e e01d a1be f6cd 9fbd 8af2 85be
00000100: 83ee 123e cbe4 243d 8b3d 913d 7b60 be3d
00000110: b69c c8bd e040 8f3d 8302 823e 70bf 2cbe
00000120: bb64 cbbd a02d 9dbd e0fc 793d d6e2 7f3d
00000130: e028 cdbd c648 52be d76f a73e 4099 22bd
00000140: de8d 2b3e d674 f1bc 4035 80be 7e03 9d3e
00000150: 0b32 45bd 48b5 763e d32f 43be e339 653e
00000160: 54c1 9d3e 2cac 8fbe 83a3 933e 26bd 97be
00000170: 7308 8e3e 9ba2 d1bd d633 1fbc 3685 97bd
00000180: 2b85 b93d 5676 b2bc 53d9 7dbe b3d0 033e
00000190: 7b24 24be 0707 873e 4ac2 9a3e 83f0 34be
000001a0: da16 803e 70e5 9d3d c043 c73d 6b5d 86bc
000001b0: 802c 123c a88a 92be ab15 ebbb ab00 f5bd
000001c0: d0d5 273e 52b4 8a3e 7b32 cd3d 9bac 5c3e
000001d0: 1c14 a93e 13f6 4ebe 86a4 05be 68d7 313e
000001e0: 26ee 993d b684 823d c0fa 4fbd 66fd b2bd
000001f0: d66f abbd 26b1 f63d ab11 173e 4286 97be
00000200: f0e7 76be b0f6 96be f8a0 8fbe beac 3dbe
00000210: f6b6 1a3d 4687 7ebe 7398 513e 4a19 993e
00000220: 4cdd 96be ee0f 7bbe 5742 aabe 1b3f 0b3e
00000230: 7b6e e33d fb1d ae3d a046 2b3e 966d 4cbe
00000240: 8644 33be 5675 29ba 66a4 b4bd a381 67be
00000250: e648 413e b2ff 883e 6068 f8bd 1e56 2d3e
00000260: c64a 14be c05c b43c 7672 d8bd ab84 923c
00000270: 4b2e 413d a835 97be e66b 103e 9e0c 3b3e
00000280: d30a 1cbe e3fe 973e d060 73be 46a0 9b3d
00000290: c0fb 87be 28c7 84be 569c c1bd bbca 8abe
000002a0: 4bff 333d f040 583e 20d0 893e 5085 e43d
000002b0: 3abe 9fbe 93de 693e e0c4 a0bd 629d 963e
000002c0: 5600 9c3b 26ed f1bd 2b1c ce3c db2f 983d
000002d0: b89f 66be 16fe 8f3e 9cde 923e 564f 9fbd
000002e0: 6bc9 493e 8be1 64bd 8bc1 8b3e 9601 1abd
000002f0: 8080 a2bc 9085 94bd c69c 9bbd 4320 693e
00000300: de2b 29be e8c2 003e c06a 87bd 9aaf 9e3e
00000310: c08c 91bc 7b4a 5a3e 5b95 f23d 70e6 85be
00000320: 6bcd c7bc 778a a0be 600d fc3d 80fc 75be
00000330: 3e22 65be 963d 8f3e 53c0 62be d6b4 38bd
00000340: 07b4 8abe c29b 833e 6b84 dfbc d6b4 813d
00000350: 33f7 9a3e 2b4f e23d 26ff 0a3e 1602 afbd
00000360: 3bcb acbd 303e 08be a855 943e 6f95 923e
00000370: 2000 71bd 7a12 8fbe 4e2b 4ebe 32ac 9d3e
00000380: 2801 85be fba8 a53e 230b 203e 2bb2 193e
00000390: 167d c53d e421 a83e 43af 6dbe bbc0 fa3d
000003a0: 46f3 593e aed1 263e 82ca 99be a25b 8cbe
000003b0: 7081 ed3d f0d6 1c3e eb56 b53c b696 b2bd
000003c0: 56c1 3dbd 88a6 02be be80 38be 7e22 223e
000003d0: e65b 6a3e cb47 99bd ef26 8bbe c322 633e
000003e0: de1b 17be 5e6e a53e 6b22 713d abaa ea35
000003f0: 7e19 283e 9606 be3c 76d6 dabd 6bdf a7bd
0.0798858 0.11746363 0.2479525 -0.2595918 0.15575513 0.24839608 -0.1694336 -0.0164543
-0.04953468 0.10684868 0.32047874 -0.053166114 -0.1783139 -0.2567714 -0.15888724 -0.07442089
0.039805494 0.30451378 0.15843973 -0.26024577 -0.031038404 0.047701877 -0.26515567 -0.02614848
-0.2690562 -0.019751947 0.15539682 0.19745073 0.12126553 -0.18183574 -0.061013818 0.20017676
0.12684664 0.15030167 0.14192908 -0.060381137 0.0023011367 -0.033622187 0.25840765 0.12627535
-0.25548047 -0.07474284 0.04473865 0.066475675 0.0016016166 -0.24004242 0.23756012 -0.08722739
-0.33248913 0.26215374 -0.01990068 -0.22910587 -0.11006343 -0.08656256 -0.31239408 -0.15904069
-0.29414794 -0.33245122 0.17340994 -0.040813565 0.21535775 -0.31468105 -0.07802956 -0.26161605
0.14348798 0.040257256 0.070918165 0.09295746 -0.09795515 0.06994796 0.2539254 -0.16869903
-0.09931322 -0.07674718 0.061032176 0.062472187 -0.10017562 -0.20535573 0.32702515 -0.03969693
0.16753337 -0.029474657 -0.25040627 0.30666727 -0.048143428 0.24092591 -0.19061212 0.22385363
0.3081156 -0.28061044 0.28835687 -0.29636496 0.2774082 -0.10236093 -0.0097169485 -0.07398455
0.09058603 -0.021784943 -0.24789934 0.12872581 -0.16029541 0.2637255 0.30226356 -0.17669873
0.25017434 0.07709777 0.09729719 -0.016401967 0.008921742 -0.2862141 -0.007174214 -0.11963018
0.16390157 0.27090698 0.10019394 0.21550219 0.33023155 -0.20211057 -0.13051042 0.17367327
0.07516126 0.06372969 -0.050776243 -0.08739738 -0.083709404 0.12045507 0.14752834 -0.29594618
-0.24111915 -0.29485083 -0.28052497 -0.18522927 0.03777214 -0.2485629 0.20468311 0.29902107
-0.2946571 -0.24517795 -0.33253738 0.13598292 0.11105057 0.08501812 0.1672616 -0.19963679
-0.17506608 -0.0006464323 -0.08820419 -0.22608046 0.18875465 0.2675758 -0.12129283 0.16927382
-0.14481649 0.022016883 -0.10568707 0.017885527 0.04716329 -0.29533124 0.1410366 0.18266532
-0.15238504 0.2968665 -0.237674 0.07598929 -0.26559258 -0.25933194 -0.09453647 -0.27107796
0.04394464 0.21118522 0.269166 0.1115824 -0.3119982 0.22838812 -0.07850051 0.2941695
0.0047607822 -0.118128106 0.025159916 0.07431003 -0.22521865 0.2812354 0.28685462 -0.07778804
0.19705741 -0.055879157 0.272961 -0.03759917 -0.019836664 -0.072520375 -0.075982615 0.22766213
-0.1652064 0.12574351 -0.06612158 0.30993348 -0.01776731 0.21317475 0.118448935 -0.26152372
-0.024389943 -0.3135564 0.123072386 -0.24022102 -0.22376344 0.27976674 -0.22143678 -0.045094334
-0.27090475 0.2570477 -0.027284821 0.0633332 0.30266723 0.11050256 0.13573894 -0.0854532
-0.08437201 -0.13304973 0.289716 0.28629634 -0.05883801 -0.27943784 -0.20133707 0.30795437
-0.25977445 0.32355484 0.15629248 0.15009372 0.09642999 0.32838356 -0.23211388 0.12243792
0.21284208 0.16290924 -0.30037314 -0.2741366 0.11596954 0.15316367 0.022136172 -0.08720152
-0.046326958 -0.12758839 -0.18017861 0.1583347 0.22886619 -0.074843965 -0.2717814 0.2218123
-0.14756724 0.32310766 0.058870714 1.748403e-06 0.16415974 0.0231965 -0.106854364 -0.081969105

conv2.bias f4 [32]
00000000: 1617 30be e6a2 03be 43af 75be a033 913d
00000010: e630 f3bd 2b7c 433e 788a 913e c87e 3a3e
00000020: 00a6 86bd 2064 8cbe f372 05be eebd 7a3e
00000030: 0046 edbc 5668 ab3b 37cd a93e bbb3 cd3d
00000040: fce9 8d3e aba1 03be f666 34be 564a c23d
00000050: f2a9 a23e 80f2 83bd 60e7 9fbd a7a5 9bbe
00000060: 1013 aabe bb4c c4bd a35a 94be bba8 bb3d
00000070: 5bca e33d 0c9a 8b3e 4046 e63c cbbd 1a3d
-0.17196307 -0.1285511 -0.23992638 0.07089925 -0.11874561 0.19090335 0.28425956 0.18212426
-0.06574631 -0.2742014 -0.13032131 0.24486515 -0.028964043 0.0052309437 0.3316438 0.100440465
0.27717578 -0.1285464 -0.17617401 0.09486835 0.31770283 -0.064427376 -0.07807803 -0.3039982
-0.3321767 -0.09584948 -0.289754 0.09163042 0.111225806 0.27265966 0.02810967 0.037778657

conv1_1.weight f4 [32, 3, 3, 3]
00000000: 9abc 08be 84a2 1cbc 8efd 4cbd da95 93bd
00000010: 5f2f 3ebd aaae d5bd 0fa9 23bd cdd5 41be
00000020: 0655 e6bc 005d 963d 437c 163e 1b04 e7bc
00000030: 6799 a7bc 1371 143d 7c86 1a3e f249 1cbe
00000040: 2778 cebd b04f 393e a792 40be 81af 91bd
00000050: 8492 383e 028f 1cbe 3314 1cbc 37b3 32be
00000060: 3cc0 16bd 510a 3bbe 204d 2fbe 2fea 52bb
00000070: 68dc 23be c9c9 2f3e e8b2 413d f5ea 243e
00000080: c160 243d 081d 3abe fe01 45be d0ce ccbc
00000090: 92f6 59bd 8321 213e 7fd8 383e f299 71bd
000000a0: 11b7 c4bd 524e d9bd 2acb a4bd 6649 a13c
000000b0: e6eb de3d ddb6 eabd a265 8ebd 00d8 27be
000000c0: 5449 44be f3e2 0abe 26df f7bd 1541 7f3d
000000d0: a3bc bf3c e7ac 963d 11cd a43d c8a3 30bd
000000e0: 63ee fcbd fb40 693d f707 31be c2a3 49bd
000000f0: ac60 4a3d 82d9 47bd 9962 233d 0e80 c73d
00000100: b263 e9bd 6416 d9bd ac64 18be 954f 3ebd
00000110: 5a27 343e c473 3fbe 3b2f b0bc cc86 3d3e
00000120: 33c6 16bd 3fe9 dd3d f626 ac3d dc4e bebd
00000130: 75af 3cbe 8efd 73bd 9090 1bbd 3a4c 72bd
00000140: 6887 40be a090 3ebe 657a 123d 2329 f339
00000150: bd7c 283e d937 05be b126 bb3d 2f56 b3bd
00000160: 4eb4 f7bc ef6e 2d3e 6684 a3bb 509a 853d
00000170: cdf0 2e3e 723d e2bd be9c d53c a10a 333e
00000180: c1a6 b03d 58c6 fcbd 6903 043e 6cf4 25be
00000190: 7326 bb3b c5f8 a33d c769 d1bd dc83 69bd
000001a0: bbe7 2bbd b6a9 a03c e3b8 5c3b 0ec7 fc3c
000001b0: 472a 9b3b 6324 8abc c0ed debd 8a75 0dbe
000001c0: bd91 153e 3204 cf3d 2ca8 3b3e 7191 033e
000001d0: 35b2 8dbd eea5 553b 200b df3c 59d4 f03c
000001e0: f752 c0bd 51d0 093e 6cee 16be 217c 2c3e
000001f0: 1bff 323e 3538 053e f136 76bd 5525 0bbd
00000200: 6cc1 edbd eda0 3b3e e868 36be 3721 273c
00000210: 5d53 c23d 5d3d 30be 6520 983c 82a9 b03d
00000220: 4920 a33d 93c8 f93c 7574 aabd fa2a 1d3e
00000230: 658d 913d 128f 18be 8bf3 ed3d f920 1dbe
00000240: 8e67 b73d 05e6 243e adcd 40be bdb7 563d
00000250: ff3e 593a da0b aa3d 7cd3 e2bc f8ed 24be
00000260: 0295 703d eb6b 65bc 9a07 163d 24bd 3fbd
00000270: d400 823c 27ec e73c 1eb2 77bd 305a 6cbd
00000280: 86b0 d8bd abce 9d3d a0a8 09be 0177 34be
00000290: 681e 56bd fbdd fc3d 7b85 8a3c bf69 2f3e
000002a0: 53b7 6ebd 7357 0cbd 83ee 473d e8ea 443e
000002b0: 261e 853c e7a3 41be 61e2 f13d f720 17be
000002c0: d7fa 62bd 1f85 ebbc 0c5c 1b3e b5e4 09be
000002d0: 6f6b abbd 9306 29be 042a 0ebe 32a8 15bb
000002e0: f610 183e 340c 853c 6171 0ebe b48c a43d
000002f0: 36d1 d0bd 888c 1ebe 4fe6 cbbd a3cf b73d
00000300: 642a 4c3d 6632 c83d 0bef 0bbb 1d2c f43d
00000310: 309c e7bd 7a00 c23d aa62 43be 13e0 863d
00000320: 1dff 6f3c ebe9 1f3e c4fc 303e 93eb d53d
00000330: acce 3c3e c621 9d3c 0145 2b3e 8343 a2bd
00000340: 9b7b 81bc 3fd5 b6bd e85d 22be 3280 86bd
00000350: 4a1b 44be e307 a43c d07e 943c 96af c13d
00000360: eba8 64bd 3e09 383e 3d5b 283e 1ca8 403e
00000370: 5606 133e 6a32 cebc 571e 37be 4201 2e3e
00000380: 0bdd 5cbd 15dc a1bd 8dd6 8abd 779e f0bd
00000390: 5b93 363e 9c94 b13d 48ab 21bd 4cb2 2fbe
000003a0: 716a 3c3e 7d96 3c3d 81d8 24be 2d1e e6bc
000003b0: bd4d d83d e501 25be cf6b 003e af1d 123e
000003c0: 3746 8ebd bbca 90bd 45a7 0fbe f44a 42be
000003d0: 1dbd 2bbe 8d00 4bbc 763e adbd e9ee 05bc
000003e0: a51e f43d bd4f 8a3a 29df 34be b4a1 2bbc
000003f0: 70fa af3d 0081 1ebe 7ce8 45bd 4b3e 8dba
-0.13353196 -0.009560231 -0.050046496 -0.07206316 -0.046431895 -0.10433705 -0.03995615 -0.18929215
-0.028116714 0.07341957 0.1469584 -0.0282002 -0.02045889 0.03624065 0.15090364 -0.15262583
-0.10081511 0.18096805 -0.18805943 -0.07113553 0.18024641 -0.15288928 -0.0095263 -0.17451178
-0.036804423 -0.18265654 -0.17119265 -0.0032183041 -0.16002047 0.17166819 0.04728976 0.16105254
0.040131334 -0.18175137 -0.19239041 -0.02500096 -0.053213663 0.1573544 0.18051337 -0.058984704
-0.0960523 -0.106106415 -0.08046563 0.01968832 0.10884838 -0.1146066 -0.06952979 -0.16390991
-0.19168597 -0.13563137 -0.12103109 0.062317926 0.023405379 0.07357197 0.08046926 -0.043124944
-0.12350156 0.056946736 -0.17288195 -0.049228437 0.0494086 -0.048791416 0.039888952 0.09741221
-0.113959685 -0.10599974 -0.14882153 -0.046462614 0.17593136 -0.18696505 -0.021506896 0.18508452
-0.03681011 0.10835504 0.08405869 -0.09292385 -0.18426307 -0.05956798 -0.037979662 -0.059154727
-0.18801653 -0.18609858 0.035761256 0.0004637922 0.16453834 -0.13009585 0.09138239 -0.087566726
-0.030237343 0.16936849 -0.0049901484 0.065235734 0.17084046 -0.11046876 0.026075717 0.17484523
0.08625556 -0.123425186 0.12891926 -0.16206521 0.0057113706 0.080064334 -0.102252536 -0.057010517
-0.041969042 0.019612174 0.0033679537 0.030856635 0.0047352645 -0.016863054 -0.10885191 -0.13814369
0.14606376 0.10108222 0.18325871 0.1284845 -0.06918756 0.0032600123 0.027226985 0.02939813
-0.09390824 0.13458373 -0.14739388 0.16844226 0.17480128 0.13009723 -0.06011099 -0.03397115
-0.11609158 0.18323107 -0.17813456 0.01020079 0.094885565 -0.17210908 0.018570134 0.08626081
0.07965142 0.030491149 -0.08322994 0.15348426 0.07107047 -0.14898327 0.11618718 -0.1534461
0.08955298 0.1610337 -0.18828459 0.05242132 0.000828728 0.08303042 -0.027688734 -0.16106403
0.058735855 -0.01400278 0.036628343 -0.046811238 0.015869536 0.028310848 -0.0604726 -0.057703197
-0.10580544 0.077054344 -0.13443232 -0.17623521 -0.05227509 0.12347027 0.016909352 0.17130183
-0.0582803 -0.034263086 0.048811447 0.19230235 0.016249727 -0.1891018 0.118107565 -0.14758669
-0.055415 -0.02875 0.15171832 -0.13466151 -0.08370101 -0.16506414 -0.13883215 -0.0022835848
0.1485022 0.01624117 -0.13910438 0.080346495 -0.10196154 -0.15483296 -0.09956037 0.089751504
0.049845114 0.09775238 -0.0021352198 0.119224764 -0.11309087 0.09472747 -0.19080606 0.065857075
0.014648226 0.15616576 0.17283922 0.10445323 0.18438214 0.019181143 0.16725542 -0.07923033
-0.01580601 -0.08927392 -0.15856135 -0.0656742 -0.19151035 0.020023292 0.018126875 0.094573185
-0.055825155 0.17972276 0.16441055 0.18814129 0.14357886 -0.025170524 -0.17882667 0.16992667
-0.05392174 -0.079033054 -0.067792036 -0.11748975 0.17829649 0.08670923 -0.039469987 -0.17157859
0.18399979 0.046041954 -0.16098215 -0.02809056 0.105617024 -0.16114004 0.12541126 0.14269136
-0.06946986 -0.07069918 -0.14028652 -0.18973905 -0.1677136 -0.012390268 -0.08459179 -0.008174636
0.119199075 0.0010552328 -0.17663254 -0.010475565 0.08592689 -0.15478897 -0.048317418 -0.0010776011

conv1_1.bias f4 [32]
00000000: dadf 54bd a46a dfbd 95d5 e8bd 97ab 823d
00000010: 6e35 ecbd 02df d73b 06cd 473d 73d4 3abe
00000020: 6b5a 9cbd 6e12 acbd ba58 3bbe ede3 263e
00000030: 29d9 3ebe b0dc f4bd 57bf 433e 1d4b 193e
00000040: 4cd1 093c ef34 003e 32e0 18bd 575c 583d
00000050: ac30 e9bd aeef 803d cf86 f1bd 8bf8 0fbe
00000060: b11f 2ebe e01e da3d f7ab 2dbd a277 2fbd
00000070: b51d ddbd 3abd 0f3c 348f 17be ee6c d33d
-0.051971294 -0.10909012 -0.113688625 0.063803844 -0.115336284 0.006587864 0.04877951 -0.18245105
-0.07634433 -0.08401953 -0.18295565 0.16297884 -0.18637528 -0.11956155 0.19115959 0.1497006
0.008411717 0.12520193 -0.037323184 0.052822437 -0.113862365 0.06295715 -0.11793291 -0.14059655
-0.17004277 0.1065042 -0.042400327 -0.0428387 -0.10796682 0.0087731425 -0.14800721 0.10323511

conv3.weight f4 [3, 1, 3, 3]
00000000: cf42 9e3e 7b84 823d 24bd 9c3e 66b4 28be
00000010: a3c3 183e 6687 e73d dfca 82be faaf 9bbe
00000020: 6c69 a23e b6cc 90be c6c9 6e3e 00ca 57bc
00000030: 56c0 e0bc 6021 d33d da5f 913e 2eb1 603e
00000040: 00e8 a6be 1be0 00be fb8d 41be 36e2 97be
00000050: e646 e23d 162f e73c 3a65 84be 3649 39bd
00000060: d68c 44bd eba0 3c3e c3b9 7c3e
0.30910346 0.06372925 0.30613053 -0.16475067 0.1491838 0.11305122 -0.25545403 -0.30407697
0.31721056 -0.28281182 0.23319158 -0.013170719 -0.027435463 0.103091 0.2839344 0.21942589
-0.32598877 -0.1258549 -0.18901818 -0.29664773 0.11048679 0.028220695 -0.2585848 -0.045235835
-0.047985874 0.1842076 0.24680237

conv3.bias f4 [3]
00000000: 46b3 6f3e b315 aabe 5bc2 a8be
0.23408231 -0.3321968 -0.3296078

conv3_1.weight f4 [32, 3, 3, 3]
00000000: 13fb 053e 8c07 a03d 1cfe 0abe 028a e4bd
00000010: 7cc7 c43d 9053 3cbd 172c 52bd 907d 1ebe
00000020: 4ac0 293e c571 343d 21df 3abe 0728 3ebe
00000030: 1c23 b6bd ca3a a93d e22b 77bd df01 bbbd
00000040: 646b d03c f8bf 313e b8e3 e33d a14f 08be
00000050: e327 babc b139 0cbe db10 453e 679a b23d
00000060: cd64 83bd fb56 f9bc ed3d 1ebe f46a a43d
00000070: 465c b73d e66a e23d de3f edbd b9b6 15be
00000080: b2e9 103e 46de f9bd 4b4c e13d 82e3 33be
00000090: 46c7 aebd a287 253e fca4 263e 1b38 293d
000000a0: 0c4d cbbb 5cf7 063e 005e e3bd 44dd 183e
000000b0: ca4b f8bd dcde 123e 5e5b 96bb 29f0 8cbc
000000c0: 550b 43be 15c9 39bd e599 2abe 598c bc3d
000000d0: fb36 ea3c 8069 afbd 4e66 aebc 656b eb3d
000000e0: d250 22be 2658 29be e21a 393e 0ce6 cfbd
000000f0: ef5b ee3d 9d18 c5bc 3647 3fbe 2d3b 093e
00000100: b51d 353e 9e29 f3bc 97dc 32bc e3ec 2b3e
00000110: 68f5 28be 938b fabb da36 213d 9dfa 083e
00000120: f718 31be 8068 f8bd 215d b7bd e569 053e
00000130: 3223 20be 5fd6 25be d345 103e 8a39 203e
00000140: a9d4 b53d 990c 44be 863f 113d 97c5 9cbd
00000150: 087a 1f3e 69f0 2a3d e9c9 1dbe beba 52bc
00000160: e988 36be 1813 033d d680 1cbe d850 0bbe
00000170: aa8d c2bd 0e12 5c3d aa64 003e 66d5 523c
00000180: e4b9 ab3d bfa3 c4bb a9b9 7d3d bbb4 ebbd
00000190: 8d24 543d 91f5 b83d 0da2 4dbd 25e0 25be
000001a0: 713a 003e 3b84 35bc 3919 b8bd 7ea5 c6bd
000001b0: 0305 b23d 1f18 d93b 479b 213e 25fc 0d3e
000001c0: ae5c 633d 800b 6c3c c19e 053c 7bb2 053c
000001d0: 3ef2 873c d038 c739 e346 2d3e c3ad 09be
000001e0: 7e4f d1ba 38f1 85bb ed1d f3bc e2c4 263e
000001f0: 764e 213e 9167 1abe 2af6 b43d 2d1d 44be
00000200: ef74 423e df1b 06be d201 593d b459 21be
00000210: f4c7 7d3d 4bac acbc 9a82 163e 76af f9bc
00000220: 1b75 d6bd c34a c03c 77f1 073e 9465 07be
00000230: 3ba7 2ebe b487 18be dff4 9abd 7a6d c2bd
00000240: 4f59 9dbd fd64 c8bc 5b1e c2bd d34c b8bc
00000250: 4d43 3b3e 2eb4 dd3c 80e1 003e e654 f03c
00000260: e55b 86bd ad08 833d dbac 713a 4a0b 0dbe
00000270: 2729 e03d e02f 313e 5ba2 0c3e df95 9d3d
00000280: cda4 d33d d556 e3bc 30e5 e5bd abf8 2fbd
00000290: e899 ebbd d1fd 0b3e c5ea f93d 6fa1 15bd
000002a0: 0254 123e 6ee1 1fbe dbc5 40be 1da0 42be
000002b0: f7a9 a23b b5c5 003e d964 d0bc 379a 233e
000002c0: 7111 913d 50ea 1b3e 8986 393e 9d3b 21bd
000002d0: 9543 bbbd f6f4 8bbc 1fd5 fb3d ae48 103e
000002e0: 62ad 2d3d 1973 1ebe 7ebb 32bd 36e9 df3c
000002f0: ace7 e13d f09a 0a3d 17f0 abbd 58f3 63bd
00000300: 94b1 3b3e 7626 403d a2ea 1f3e c30f 933d
00000310: 9df6 8d3d e6c7 2bbe 167b 1abe ff7f 0d3e
00000320: 4673 0abe f417 0e3d afd6 103d 82b5 3f3e
00000330: dd98 333e 43cc 863d 60f6 cebd 3235 10be
00000340: 097b 383d 9add 2a3e 1b45 43bd e3d5 183e
00000350: 4830 10be e896 c8bd 6fc2 d8bd e62c e4bd
00000360: 8e5b 09be 845a debd cb81 f63d 3697 f23d
00000370: 6965 27be 3fd7 0a3d 1586 1b3e 5c70 033e
00000380: bad7 243e 1104 febd f3a7 f1bd 1e40 a93d
00000390: a18d 37be 1a39 e0bd b66d 413e 913d 163e
000003a0: 1fa0 14be e292 f63d fd3f ab3c 13cb d5bc
000003b0: 1764 113e eb8a 24be b3f9 073d 5554 20be
000003c0: 06a3 083e afca 3fbe 1f76 b03d 1911 2e3d
000003d0: 69b2 123e 4468 39be d9d7 01be 34cd 3b3e
000003e0: 1259 303e 8035 043e 4137 893d fc72 30be
000003f0: 4b6b b1bd f4c6 423c cb40 71bc c32e 563c
0.13084058 0.078139395 -0.13573498 -0.111591354 0.09608361 -0.04597813 -0.05131158 -0.15477586
0.16577259 0.04405381 -0.1824918 -0.18569957 -0.08893415 0.08263166 -0.060344584 -0.09131216
0.025441833 0.17358387 0.11127418 -0.13311626 -0.022724098 -0.13693883 0.19244711 0.08720856
-0.064157106 -0.030436983 -0.1545331 0.08028212 0.08953147 0.110555455 -0.11584447 -0.14620484
0.14151648 -0.122005984 0.1100088 -0.17567256 -0.08534102 0.16165021 0.16273874 0.041313272
-0.006204253 0.13180298 -0.111019135 0.14928156 -0.121238306 0.14342827 -0.0045885285 -0.017204361
-0.19047292 -0.045357782 -0.16660269 0.09206457 0.02859067 -0.085650444 -0.021289017 0.11495093
-0.15851143 -0.16537532 0.18076661 -0.101513 0.11638629 -0.024059588 -0.18679509 0.1340148
0.17687114 -0.02968293 -0.0109168505 0.16789584 -0.16499865 -0.007646033 0.03935895 0.13376851
-0.1729468 -0.12129307 -0.0895331 0.13028677 -0.15638426 -0.16195057 0.14089136 0.1564695
0.08878452 -0.1914543 0.03546097 -0.07654875 0.15573895 0.04173318 -0.15409054 -0.012861906
-0.17825665 0.03200063 -0.15283522 -0.13605058 -0.094996765 0.053728156 0.125384 0.012868261
0.08385065 -0.0060009654 0.061944637 -0.11509081 0.05179267 0.09031213 -0.05020337 -0.16198786
0.12522294 -0.0110788895 -0.08989186 -0.09699534 0.08692362 0.00662519 0.1578189 0.13865717
0.055508308 0.014407039 0.008155526 0.008160229 0.016595002 0.00037998566 0.16921572 -0.13445191
-0.0015969125 -0.0040875934 -0.029677356 0.16286042 0.15752587 -0.1507857 0.088360146 -0.19151755
0.18989919 -0.1309657 0.05298025 -0.15756875 0.06195827 -0.02107825 0.14698258 -0.030479174
-0.10471555 0.02347315 0.13275705 -0.13222343 -0.17055981 -0.14895517 -0.07566237 -0.09493537
-0.0768305 -0.024462217 -0.09478446 -0.02249757 0.18287392 0.027063455 0.12586021 0.029337358
-0.06560496 0.06398139 0.0009219178 -0.13773838 0.10945349 0.17303419 0.13733809 0.07694601
0.10334168 -0.027751366 -0.11225355 -0.042961758 -0.11503965 0.13671042 0.12202982 -0.03653091
0.14289859 -0.15613338 -0.18825476 -0.19006391 0.004964109 0.12575419 -0.025438713 0.15976797
0.07083405 0.15226102 0.18117727 -0.039363492 -0.091437496 -0.01708458 0.12296509 0.14090225
0.04240168 -0.15473594 -0.043635838 0.027332883 0.11030516 0.033839166 -0.08395403 -0.055651993
0.1832946 0.04691168 0.15616849 0.07180741 0.069318034 -0.16775474 -0.15086016 0.13818358
-0.13520536 0.034690812 0.03536099 0.18721583 0.17538781 0.065819286 -0.10105586 -0.14082792
0.04503921 0.16686097 -0.047673326 0.14925341 -0.14080918 -0.09794408 -0.1058396 -0.11141376
-0.13413832 -0.10857108 0.12036475 0.118452474 -0.16347279 0.03389668 0.15187867 0.1283583
0.16097918 -0.12403119 -0.11799612 0.082641825 -0.17925121 -0.10948391 0.18889508 0.14671923
-0.14514206 0.120397344 0.020904535 -0.02609781 0.14198337 -0.16068618 0.033197116 -0.1565717
0.13343439 -0.18729661 0.0861628 0.042496774 0.1432587 -0.1810618 -0.12679996 0.18339998
0.17221478 0.12911034 0.06699992 -0.17231363 -0.08663043 0.011888254 -0.0147249205 0.013072672

conv3_1.bias f4 [32]
00000000: 561c 093e 0d86 1c3e 5594 8f3d aa2c 35bc
00000010: c5eb 90bd 3cd0 a3bd 4b7b a33d 747e 16be
00000020: 85b0 953c b292 0f3e f7c8 f83d 79f6 2fbe
00000030: 82fd c53d a8b9 333e 63e1 b7bc 95a9 8d3c
00000040: a96c 823d 13d0 1ebe 272d 0d3e c539 ad3d
00000050: 4d4e 433e b8f7 2dbe bbfe b63c 40aa 0cbd
00000060: 1e7b bfbd 3ccd e63d 3f85 9d3d 70d0 a3bd
00000070: e3c3 20bd 4004 a73d 68cc 7a3d 0d0c 06be
0.13389716 0.15285511 0.07010714 -0.011058012 -0.070762195 -0.07998702 0.07982501 -0.14696676
0.018272648 0.14020804 0.12147706 -0.17183866 0.096674934 0.17551291 -0.02244634 0.017292777
0.063683815 -0.15509062 0.13786756 0.08458284 0.19072838 -0.16989028 0.022338262 -0.03434205
-0.093496546 0.11269614 0.0769143 -0.07998741 -0.039249312 0.081551075 0.061230093 -0.13090535

fc1.weight f4 [36, 44]
00000000: 5b11 02be 676b cc3d 20ae 00be 774c 133e
00000010: ebde ae3d ee81 883d 5418 01be 4f87 b7bb
00000020: 3833 e53d b5cd 05be f86b 093d fccf 21bd
00000030: 1059 88bc 354e 2c3d 85b4 0f3e 7c26 2ebd
00000040: 8cb4 5a3b 2f71 f13c 12cf 89bd 3c52 50bd
00000050: a772 8b3d 544e 56bc ea3e 873d f31e 25bd
00000060: 357f c6bd b217 43bd 9645 febd 888d 063e
00000070: b5c1 83bd 7300 1abe 787c dc3d 0ea8 0e3e
00000080: 929f 11be c394 95bd f64c bebd f25b 053e
00000090: 61cd a4bd 2d52 6c3d 74e2 05bc a9b4 76bd
000000a0: 1811 f4bd 11b5 d23d 6d21 163e 84f2 f7bd
000000b0: 5f50 f7bc 8551 b53b 751d 2d3d b2ac 8dbd
000000c0: 13a1 9a3d c5dd 923d 13f8 aebd e3a0 baba
000000d0: 39a2 003d b00c 0c3e abdd f7ba 65a5 cfbc
000000e0: d50d 80bd a34c d93d 54e8 9fbd dd0e 02bd
000000f0: ac81 2e3d eae9 193e 6523 053e 608b 5bbc
00000100: 515b d93b 8505 f63d af8e 06be 0c04 8c3d
00000110: 2661 fbbc dcee 2f3d a1ba 8b3d b741 adbd
00000120: c24e 253d 3e8d 10bd fe49 c23c 1553 133e
00000130: c72c 403d ac6a 3cbd ccdb 3cbd 3663 83bc
00000140: e6e0 ee3d 17f7 9ebd cd48 1b3d da4b 103d
00000150: d5dd bcbd 769f 52bd 102d 383c 7792 9c3c
00000160: 4004 73bd 5d28 e4bc 7abc d8bd 761a 5dbd
00000170: 8c92 cfbc bb90 0fbe 5431 0d3e b09d 96bd
00000180: 6487 e13c 91f9 5f3d d374 f23b 6a94 823b
00000190: ac55 96bd 45a7 2e3d 149a ecbd a627 d73d
000001a0: 872c 1a3e 162d 113e 201d 8f3d 66d6 fabd
000001b0: 2b74 4dbd 44d0 a93d 3f15 cd3d fe41 77bd
000001c0: 64bc c5bd 09d0 b6bd e925 163d 556b 74bd
000001d0: f0c2 b0bd c88a 8fbd ffa0 c7bd e16a 05be
000001e0: 6c8e e23b 3128 fb3d bcce cd3c 8f34 043e
000001f0: 0bd4 aebb 7a2e d4bc f57b 5bbd 00d0 58bd
00000200: cc56 183d 46e6 3cbc 95d1 0ebe 01b1 633c
00000210: 2f59 3b3d 2d2c 0dbe f51a 0abe 5798 febd
00000220: e6fd b33d 19bd 61bd 06a4 16be 877b 94bd
00000230: 64f0 953c 0bfd cd3d 1c0d ea3d f82d b8bd
00000240: 6ecc 25bc bf42 be3c c9c3 d63d 85e3 0a3e
00000250: 8283 a73d 35a3 02be c7c4 1b3d 137a 0bbe
00000260: bc7b c03d 182f e63d 018c 803c ffdf c83d
00000270: a2e1 09bd 21dc 9cbd 5aed f53d 690a cdbc
00000280: 6e0d bb3c db38 873c 5a99 08be 5587 10be
00000290: 4521 a1bd cfec c3bd 17ec f13d 957e c53d
000002a0: 5e01 c83d 448b 843d e7ee 15bd 2ea0 d7bd
000002b0: 6ded de3c 7323 d7bd e98b a73c 0724 f23d
000002c0: 77db c43d dd2f 213d 52a3 8d3d c79e 8cbd
000002d0: e344 0b3d be35 05bd da70 c83d 9503 b53d
000002e0: cf69 463b 8b83 8e3d 20a3 b0bd 26bd a63c
000002f0: 4142 9cbd a965 a03c 8ea9 313d 27b4 fc3d
00000300: d79a 00be ca92 a7bd f5d5 97bd 53cd 96bc
00000310: 9aff fabd 6932 223c 0eb8 10be afb2 a7bd
00000320: 602a 3b3b 159c 7dbd 042e a13d d0dd a93c
00000330: be5f d43d e9fb 333c 98f9 f83d 19b7 e73d
00000340: 9676 193e b9a6 543d 02f5 94bd 9842 50bd
00000350: e423 74bd 4fce a2bd 7071 ffbc bf48 1c3c
00000360: 1ae4 b5bd bdae fabd 5687 1f3d 129f f13d
00000370: b493 853d 012b ba3d d316 40bd 9c25 843d
00000380: b726 0cbe 19fb ae3d a681 033e d244 c9bd
00000390: 3c27 c4bd 2d29 08be 4d53 023e b53e 8bbd
000003a0: 6583 093e e91b fe3d 3ce5 563d 7a0b 19bd
000003b0: 0106 c5bd 518d 48bd c4e5 cf3d 9dc4 d1bd
000003c0: eff1 b43d 9e23 a3bd 7341 70bc 1161 34bc
000003d0: ff33 8c3d 9fd5 643d 3b15 04be 2b0a bf3d
000003e0: e98a 26bb a7b7 d83d 06fb 173c f4d6 95bd
000003f0: 6457 cdbd 0096 2abc e90f 033e f44d 953c
-0.12701933 0.09981423 -0.12566423 0.14384638 0.08538612 0.06665407 -0.12606937 -0.005600847
0.1119141 -0.13066752 0.033550233 -0.03950499 -0.01664403 0.04206677 0.14033706 -0.04251717
0.0033371774 0.029472915 -0.06728949 -0.050859675 0.068089776 -0.013080198 0.06603797 -0.04031272
-0.096922316 -0.04763002 -0.12415616 0.13139927 -0.06433431 -0.15039234 0.10765928 0.13931295
-0.14221027 -0.07303765 -0.09292023 0.13023356 -0.080469854 0.057695556 -0.008171666 -0.060230885
-0.11917323 0.10288442 0.14661188 -0.12106803 -0.030189691 0.0055333995 0.04226442 -0.06917705
0.07550254 0.071712054 -0.0854341 -0.0014238622 0.031404708 0.13676715 -0.0018910667 -0.025347421
-0.06252638 0.106103204 -0.07807985 -0.031752456 0.042604133 0.15030637 0.13001783 -0.013399929
0.0066332 0.120127715 -0.13140367 0.068367094 -0.030685972 0.042952403 0.06822706 -0.084598
0.040358312 -0.03529095 0.023716923 0.14387162 0.046917703 -0.046000168 -0.046108052 -0.016038518
0.1166399 -0.077619724 0.037911225 0.035228588 -0.092219986 -0.051421605 0.0112412125 0.019112809
-0.059330225 -0.027851278 -0.10582824 -0.053980313 -0.025338434 -0.14020054 0.13788348 -0.07354295
0.02753038 0.054681364 0.0073991804 0.0039849775 -0.07340559 0.04263999 -0.115528256 0.10505609
0.15056048 0.14177355 0.06987977 -0.122479245 -0.050159615 0.08291677 0.10013818 -0.06036567
-0.09655073 -0.08926398 0.036657248 -0.059672672 -0.086309314 -0.07008892 -0.097475044 -0.13029052
0.0069139507 0.12263525 0.025122993 0.12910675 -0.005335336 -0.025901068 -0.05358501 -0.05293274
0.03719215 -0.011529511 -0.13947137 0.0138971815 0.04573935 -0.13786383 -0.13486846 -0.124314
0.08788662 -0.05511198 -0.14711007 -0.072501235 0.018303104 0.1005803 0.11428282 -0.08993143
-0.010119541 0.023225186 0.10486562 0.13563354 0.0817938 -0.12757571 0.03802946 -0.13620786
0.093986005 0.11239451 0.015691759 0.09808349 -0.033662446 -0.07659174 0.12008162 -0.025029378
0.022833552 0.016506603 -0.13339749 -0.14114125 -0.07867674 -0.09566652 0.11812609 0.09643284
0.09765886 0.06471875 -0.03660479 -0.10528599 0.027212823 -0.10504808 0.020452457 0.11823278
0.09612172 0.039352287 0.069159165 -0.06866222 0.034001242 -0.032521956 0.0978715 0.08838574
0.003027547 0.069586836 -0.086248636 0.020353865 -0.076298244 0.019579725 0.04337459 0.12339049
-0.12559067 -0.08182295 -0.07413856 -0.018408453 -0.122557834 0.009899714 -0.14132711 -0.08188378
0.0028559193 -0.06191643 0.07870105 0.020735651 0.10369824 0.010985353 0.12156981 0.1131422
0.14986643 0.05191681 -0.07273294 -0.05084476 -0.05960454 -0.079495065 -0.03118202 0.009538828
-0.088813975 -0.1224036 0.038947426 0.117979184 0.06522313 0.090902336 -0.046896767 0.06452486
-0.13686644 0.08543987 0.12842426 -0.098275796 -0.09577796 -0.13296957 0.12727089 -0.0679907
0.1342903 0.12407667 0.05246471 -0.03736446 -0.09620286 -0.048962895 0.10151246 -0.10242579
0.08835208 -0.07965778 -0.014664042 -0.011009471 0.06845855 0.055867787 -0.12898724 0.09328111
-0.0025412387 0.10581904 0.009276157 -0.0731639 -0.10026434 -0.010411739 0.12799038 0.018225648

fc1.bias f4 [36]
00000000: a342 1a3e 1df7 d93d 3c5f 023e 8802 843d
00000010: 78c1 d8bc 5d52 6bbd 3ba9 e4bd 932e 1ebd
00000020: abd7 c4bd ea33 973c 3f93 e8bd 6f64 3abd
00000030: c85f 073e db5d bb3d 49bf 45bd cb07 e1bd
00000040: b69a 773d 8c2f 873d 8446 023e 330c 2f3d
00000050: 067c af3d f7c5 9bbd f335 e43d 88b8 a53d
00000060: 18ba f1bd 6e84 94bc bbef 17be 6c2a e13d
00000070: 91eb 81bc 238c cdbd 0f36 c0bd fbc9 c1bd
00000080: 5f37 1b3d 64e9 dcbd be9c 12be 1484 aa3d
0.15064482 0.10642836 0.12731642 0.06445795 -0.02645944 -0.057451595 -0.11165091 -0.038618635
-0.09611448 0.018457372 -0.1135621 -0.045505937 0.13220131 0.09148761 -0.048278127 -0.109878145
0.06045028 0.06600866 0.12722212 0.042736243 0.085685775 -0.07606118 0.111431025 0.08091837
-0.11803073 -0.018129554 -0.14837544 0.109944195 -0.015859397 -0.100364946 -0.09385311 -0.09462353
0.037894603 -0.10786703 -0.14317605 0.08325973
